main/forecasting/darts_logs/Air_RNN/checkpoints/best-epoch=297-val_loss=0.00.ckpt (torch, 77612 bytes, 19 tensors)

rnn.weight_ih_l0 f8 [80, 14]
0.1015577067681567 0.04084310252920963 -0.15449682841574694 -0.09174190566860545 0.13771980079814808 0.20566922659928308 0.0488762118433107 0.2705554332422448
-0.055987462708990535 0.22059496294988223 0.17993460155929997 -0.10003463824797441 -0.09588085250113665 -0.027995493113249188 0.36245667818682487 0.4804380509148443
0.1847221030636145 -0.09610042771127597 -0.01917689106147479 0.022788859031005325 -0.17231543976910302 -0.0412436490216877 -0.03676667916333609 0.05779399935674114
-0.13867393039838347 -0.20201099373310571 -0.10730414869940437 -0.07871931838312148 0.3546164062056801 0.34997912257603125 -0.05641839575895446 0.03773660264760722
0.1094237128559852 0.010655114768827833 -0.07850146122650412 0.20962715704126225 0.0531582855555288 0.22894272081649644 0.09733917120884619 0.0669361410186901
-0.281774725769158 0.02282877935163194 0.17709678661107967 0.3015020923125684 -0.07917578295755126 0.03626223440721296 0.3563959874157356 0.23906136324590788
0.14502049763476021 0.3430912001635159 0.11161550540201749 -0.05524370531886518 0.11219156988949948 0.029934857315354536 -0.041978403953195235 0.1452431275090275
0.05124344076687386 0.24798568639001 0.13591840803747063 -0.10230510204417416 0.281332905927836 -0.22155746386087907 0.10629962955962735 0.3539156700602909
0.04469082903523742 0.31772532383880736 -0.015264429499315346 -0.029024912947260353 -0.097598224361981 0.034683408494733316 0.49200684368999403 0.43981375060871114
0.1564793733051404 0.12881875668196668 0.016353788463532307 0.2834810212606019 0.41004922162599994 0.06787454872594278 0.11372770937323173 0.3644722690352994
0.17402558658136036 0.11227268517155392 0.09085436743182379 0.4600691283068931 0.2570545094005052 0.26365535210933344 -0.05890495508957603 -0.10095401276739444
0.2212436768474885 0.34793613525728784 0.2348214760133422 -0.013346568409555839 0.11869155527379907 0.3802746086320478 -0.16709599359624636 -0.044601219101748885
-0.16333405526717937 0.220385956959453 0.46341318116173436 0.27041048489680847 0.10517995421165986 0.04338404169314034 -0.06435873426458989 -0.03490752754699384
0.10165869446451327 0.349859650903756 -0.008248201463689405 0.3498540922881686 -0.06396712752471004 -0.20429031276370618 -0.03645710509906479 0.05862607093185782
0.3112387785066448 0.1210474983792701 0.2902077725957851 0.47253754553106947 0.06306773630871257 0.36755338176285307 0.4200712695689587 0.584214816620515
0.21964432804187017 -0.0788636794504248 -0.01959718910407305 0.1228993253195771 0.04359263320951574 -0.07757774947274057 0.12449860346508429 -0.21807980169160596
0.2606822870125093 0.1838340156244267 0.778120466192664 0.42307929500517544 0.3310828867888376 0.7469505436087615 0.6920011793480945 0.2870174368984154
0.06077431145184116 0.3490038214426706 0.34386471847805783 0.3035788405092637 0.15199797525205158 0.4106060987040154 0.5176990099868676 0.20592269315177492
0.3196973680788549 0.20043483251103236 0.499093224176046 0.7620696201134406 0.248724491206079 0.4144231190849343 0.564003881798254 0.11082464925981929
0.22998900904376607 0.2587403923057976 0.3912173164596466 0.019584412318902976 0.2804246107706508 0.23380504537837613 -0.010845113376385633 0.14762125373604218
0.23842086952267086 0.02308873212989542 0.39669036171755623 -0.0013708177972391385 -0.06463554387445657 0.175441410832557 0.007215359547493641 -0.005508389448228723
0.49618387853468787 0.43107180209532997 0.11121998073900614 0.18431547684318086 -0.018423468371908638 0.29368710502638473 0.24631993936437177 0.06869548378736422
0.37948767605273176 -0.021185704287624296 -0.1412460025536154 -0.18964556513043127 0.07099401157825216 0.09961195176004618 0.09562684296051645 0.3020244623245217
0.2751198939046185 0.13583805671494398 0.15277940645620497 -0.08176995995618062 -0.10707564278987049 0.07630050987216136 0.32280359594027347 0.3082817164550979
-0.028184434859754852 -0.05185899300573214 0.1998563236195296 0.06676996060125871 0.02330621591612326 0.07956053830613759 0.0979648538367125 -0.015144028294801756
0.1200488974195294 -0.15646211699745782 0.09719161692695157 0.06814409720433322 0.02387934044768183 0.13634200191140372 0.10782792706071033 0.14766951337907588
-0.24748795631839357 -0.21689357869913528 -0.207260953665637 -0.3018404114421982 0.011107957456225902 -0.07075658212448781 0.28062395361957365 0.0983185337894017
0.13088287720907874 0.04846152534431273 0.15427419114376548 0.2632214805088981 -0.23013211566029854 0.04333350301465559 0.05562647480541572 0.14776303972926338
0.027345493417157966 0.1403804595942339 -0.03443493548595561 0.16667158245277183 -0.09840943877532887 0.13893853116504054 0.19197266036574795 0.10259489386677256
0.04754161954469565 -0.051036087410646705 0.3031474536274681 -0.15687148557797867 0.010616241219111065 0.021589349614914755 0.3230838693918302 0.08122865201909032
0.41107339154298334 0.16162252528581486 0.20457762466608634 0.2786352884051525 -0.045599437660164756 0.15379424325710364 0.492927498485192 0.1544441532107958
0.012868587984775833 0.033235072566236375 0.053310442419025314 -0.069837093623203 0.23989058119131143 0.3248493375316514 0.0782444230997948 0.1342936786033171
00000000: 8ada 3995 afff b93f 6ea0 421b 63e9 a43f
00000010: 4bd0 b054 8dc6 c3bf ebf5 84c4 657c b7bf
00000020: 7547 386c cda0 c13f ebcd 0485 5e53 ca3f
00000030: f0b9 d686 4d06 a93f 93f4 61bc c750 d13f
00000040: aa6b a482 63aa acbf 101b c4ab 743c cc3f
00000050: 90d8 8ed6 1808 c73f 7f03 bebb de9b b9bf
00000060: 4813 cec5 a58b b8bf 955c 6dbd d9aa 9cbf
00000070: 91de c17e 7d32 d73f 31ba 1b3d 7fbf de3f
00000080: 25d7 c04f f9a4 c73f 7ccb 26a2 099a b8bf
00000090: 9dbd ca5f 1ba3 93bf 965a 0171 f655 973f
000000a0: 5cbb 33ad 6e0e c6bf 0884 6e37 e31d a5bf
000000b0: 6098 2d09 15d3 a2bf c3d4 48d2 2c97 ad3f
000000c0: 0f36 ef3d 11c0 c1bf 3411 c209 7fdb c9bf
000000d0: 9d99 63e1 4878 bbbf d5d7 0402 f326 b4bf
000000e0: 15d2 d102 09b2 d63f 0ecc 6fd5 0e66 d63f
000000f0: 8fe0 5a39 dfe2 acbf 0b9d 7744 3652 a33f
00000100: f293 1f44 3103 bc3f 73e9 bc4b 59d2 853f
00000110: b6f2 a7f8 ab18 b4bf 293f ec0b 10d5 ca3f
00000120: bee1 f113 9037 ab3f c734 48bd fe4d cd3f
00000130: 8a34 f64c 38eb b83f fb80 9818 ba22 b13f
00000140: 4f25 01dc 9808 d2bf 3835 e472 6d60 973f
00000150: d552 5c85 1bab c63f 901d 8a6e cf4b d33f
00000160: b218 7036 dd44 b4bf 3cbd b7ad f690 a23f
00000170: db13 981d 31cf d63f cc6d 7010 9099 ce3f
00000180: f0a3 4b1b 0890 c23f 2ada 0fcb 34f5 d53f
00000190: f99c 6d71 d592 bc3f d70b 4f27 e748 acbf
000001a0: cdf2 8f33 96b8 bc3f ea30 b844 3ea7 9e3f
000001b0: 4708 3c80 317e a5bf 2d5d 4fa9 5397 c23f
000001c0: 66db 748c 943c aa3f 0eea 75b6 febd cf3f
000001d0: 3e00 b93e c665 c13f 3561 7ecb aa30 babf
000001e0: b4ea 8fbb 5b01 d23f 79cc bbb6 fe5b ccbf
000001f0: 7817 89d8 7336 bb3f 26db 1ce9 8da6 d63f
00000200: b962 4662 b7e1 a63f 7cea bf98 9c55 d43f
00000210: e6e9 ee0b f542 8fbf b4cb 82ef b4b8 9dbf
00000220: fb49 c87d 32fc b8bf 75ba 6512 06c2 a13f
00000230: 1ca1 c345 0a7d df3f 4f83 cc92 e825 dc3f
00000240: 380d 6c1f 8407 c43f 1ebc 870d 227d c03f
00000250: 015f 772a 0cbf 903f 3976 d694 8d24 d23f
00000260: 3d92 2817 3f3e da3f 0839 02f7 3960 b13f
00000270: a832 6858 421d bd3f b68d f37e 8353 d73f
00000280: 545f 846d 7846 c63f f4c1 0b17 e7bd bc3f
00000290: fc85 d158 3b42 b73f a38c fec8 c571 dd3f
000002a0: 1487 cac1 9473 d03f 9c65 aeb2 badf d03f
000002b0: 4d39 5d4f ca28 aebf 9e65 3c47 1fd8 b9bf
000002c0: 5ddd 407a b651 cc3f 30b5 81ec 9544 d63f
000002d0: ae18 f04f a10e ce3f 41b7 a916 7255 8bbf
000002e0: 225c 36dc 9162 be3f dfb9 e44f 6b56 d83f
000002f0: afed e4c9 6663 c5bf 44b7 ce92 f8d5 a6bf
00000300: 2809 d95c 21e8 c4bf d6ba d166 9b35 cc3f
00000310: 8cff 67c2 8fa8 dd3f 9725 48c7 674e d13f
00000320: d3aa 88cf 12ed ba3f 9d0d 7be0 6e36 a63f
00000330: bddc e062 d079 b0bf 59a9 6542 66df a1bf
00000340: 9142 14e0 4d06 ba3f 3d95 b4bb 1964 d63f
00000350: 3186 4cdc 6ee4 80bf fdf6 2f6b 0264 d63f
00000360: 52d9 bc50 2660 b0bf 6ad8 1a5a 2f26 cabf
00000370: 66f2 3674 81aa a2bf e5cb b082 3c04 ae3f
00000380: b7b6 bb0d 56eb d33f 3934 cd06 f8fc be3f
00000390: 7e02 169f c392 d23f 1509 0c1e 0e3e de3f
000003a0: aaf0 e008 3525 b03f 7b29 8d9e fe85 d73f
000003b0: 966c 329b 72e2 da3f f428 6745 e3b1 e23f
000003c0: 8c8a d82a 4e1d cc3f f6f0 14fc 6830 b4bf
000003d0: 229d 2e19 4911 94bf 4db3 f286 5476 bf3f
000003e0: 3979 f60b c651 a63f c2f8 e1a8 22dc b3bf
000003f0: ccbb 47f6 23df bf3f a280 17f8 09ea cbbf
00000400: a65f 57c2 04af d03f f0e7 7f7e df87 c73f
00000410: 1caa 54e4 5ce6 e83f a15d ea2d bb13 db3f
00000420: 357e c146 7630 d53f ffed 90d3 04e7 e73f
00000430: ecfd 42a8 df24 e63f 6a11 3762 7e5e d23f
00000440: 4ac2 3e80 cf1d af3f 6a9e d11f 1456 d63f
00000450: e722 072a e101 d63f 3dac eff1 d56d d33f
00000460: 0b05 626e ab74 c33f 8333 5ecd 5e47 da3f
00000470: e715 a283 fd90 e03f b4a9 4bc0 ac5b ca3f
00000480: 6d05 21f3 eb75 d43f 899b 4e3d d9a7 c93f
00000490: b171 dfb4 24f1 df3f 2532 f5d3 df62 e83f
000004a0: 6de0 b841 34d6 cf3f 5345 cb8b e885 da3f
000004b0: 647f 64de 510c e23f 415e 2914 015f bc3f
000004c0: 7426 24a4 4770 cd3f 18e3 c6dc 338f d03f
000004d0: 17ad f45a b409 d93f 662c afa9 ef0d 943f
000004e0: ed38 1011 7af2 d13f 251c c5df 52ed cd3f
000004f0: 8f14 2f7a f635 86bf 28d3 7ed4 40e5 c23f
00000500: 1152 a436 9384 ce3f 8eb3 9d95 92a4 973f
00000510: b6c7 8df8 5f63 d93f 1d1c e866 a075 56bf
00000520: 3f97 197b f48b b0bf 4ee9 f138 dd74 c63f
00000530: 83dc 9054 da8d 7d3f 7356 8a08 f78f 76bf
00000540: 8ff8 c606 7ac1 df3f e18a 0e2f ae96 db3f
00000550: 5d8f efa3 e978 bc3f e513 9848 a697 c73f
00000560: f781 8b08 9add 92bf 6818 d6ff c4cb d23f
00000570: 5f1a f669 6987 cf3f 97e7 3ff8 0696 b13f
00000580: e96a 78ad 8649 d83f 9377 3b8c b4b1 95bf
00000590: 144a d458 5914 c2bf ab87 084e 4e46 c8bf
000005a0: 92c0 f0dd a92c b23f fda1 193b 2b80 b93f
000005b0: ed98 2233 007b b83f c9a6 1169 5e54 d33f
000005c0: 2928 b378 909b d13f d049 9235 2463 c13f
000005d0: 12a8 1d8d 468e c33f 3799 ce47 e0ee b4bf
000005e0: 510d fb2f 4f69 bbbf ccad 9122 6e88 b33f
000005f0: 1f0f e669 d0a8 d43f ef47 883c e3ba d33f
00000600: fe61 ea67 61dc 9cbf 0e1d ed0d 438d aabf
00000610: 361e ec5a e494 c93f b73a 230d d617 b13f
00000620: 42f1 9cac 95dd 973f 55b7 1356 145e b43f
00000630: 78d7 6283 3914 b93f b806 0c12 d503 8fbf
00000640: f875 5648 86bb be3f b093 c85d f306 c4bf
00000650: b188 25c0 8ce1 b83f 5f76 e83c e471 b13f
00000660: 4764 1769 d373 983f 4aec a39b a773 c13f
00000670: c13b 526c 9c9a bb3f a528 4aa9 d5e6 c23f
00000680: d74b 4573 afad cfbf f8d2 9c35 2bc3 cbbf
00000690: c3a7 dde4 8687 cabf e458 f071 5a51 d3bf
000006a0: 26b1 ffcf c4bf 863f d38f 3376 1a1d b2bf
000006b0: 6d4c d12b bef5 d13f b055 3747 672b b93f
000006c0: 8b14 9c26 c5c0 c03f 95aa eff4 f2cf a83f
000006d0: 5727 cab6 41bf c33f 9ffc 98e8 9ed8 d03f
000006e0: 4398 421b f874 cdbf a6c2 8914 cf2f a63f
000006f0: 917c 29c4 127b ac3f 13ed 9837 e6e9 c23f
00000700: bebf adff 7400 9c3f 1633 7aa5 fcf7 c13f
00000710: 980c 81b3 74a1 a1bf 1153 e791 7e55 c53f
00000720: 6c62 2869 5c31 b9bf 450a c1df bcc8 c13f
00000730: ca9d ff64 8f92 c83f 08f6 e4b1 a843 ba3f
00000740: 2764 490a 6057 a83f 9265 b0ec 6621 aabf
00000750: 9085 cc93 c466 d33f c7bd 1d66 5d14 c4bf
00000760: f27f bdc6 f7bd 853f 5de1 26ba 841b 963f
00000770: 82cb 39f7 67ad d43f 6e8f eba3 66cb b43f
00000780: e7b4 3bc5 064f da3f 1323 3302 0cb0 c43f
00000790: fd93 b77f 992f ca3f ce8b cd1a 29d5 d13f
000007a0: c5cb ee3a cf58 a7bf 1b19 8d9e 87af c33f
000007b0: 56c0 52c7 1f8c df3f dea4 8c75 d3c4 c33f
000007c0: 718e 52a4 d85a 8a3f b11c 81fb 2f04 a13f
000007d0: d633 739d 814b ab3f f8ca 2801 d8e0 b1bf
000007e0: 0fe5 6a0c bcb4 ce3f 67d8 34e0 54ca d43f
000007f0: 75d9 4e96 d307 b43f 8094 d406 8930 c13f

rnn.weight_hh_l0 f8 [80, 20]
-0.22308287322924264 -0.20120441217929666 0.17612347811277212 -0.10902622788743961 0.09598056521480212 0.08912490163947795 -0.15757224812742757 -0.0682591120976119
0.08580830704480542 0.004793138548444516 0.060401541932798244 0.22080525986327407 -0.22138306874307037 -0.2221360983079604 -0.15525446104620808 0.1939319988017683
0.15200592729228946 -0.19151212255140174 -0.1033414700587667 0.1587881157421895 0.11468387637158323 -0.33777518550313435 -0.16227820336055532 -0.0036411010281345193
0.08191606072448211 -0.2754808421387803 0.010168792579699711 -0.23296135026223055 0.043949418194116185 -0.349256180073919 0.3543354151955246 0.22053652050859365
0.07954059189345128 0.09193814968236758 0.2502924896606429 -0.1873512780116266 0.24594546837727765 -0.45066034895488544 0.03494777218738876 -0.057886150739840006
-0.1267410336870192 -0.09860754703693696 0.10505526393668042 0.015288874196765383 0.17898526906273599 -0.09326002355700296 -0.05736404388512668 -0.09301773243687353
-0.0216954660224475 -0.19031056413112157 0.19081532702601506 0.25691604698877746 0.1340334405417957 -0.08175285821739309 0.2742870418883881 0.034083932086020285
0.2081847114875382 -0.04171988018921303 -0.004787742516252333 -0.03278691656174705 0.1721613503420819 -0.35499897617596865 0.18337621826914857 -0.07207678692828953
0.12282654383633056 0.08246817792363119 0.1517282338726363 -0.17226548649816542 -0.11017505364966101 -0.35685085975540976 0.21227475242050003 0.1315501807672759
0.19335042872306354 -0.08551434246314055 -0.061809369296654045 0.06484154832695592 -0.0542742084853005 -0.10497593529236722 -0.1955373114212074 0.006242122784094764
-0.09936703385968935 -0.048550771846919666 0.0027543388325021105 0.003749832151465116 -0.1318064656307754 -0.261500004406203 0.06161095489666068 0.02611098730249212
0.2280254391247318 -0.2753554762318982 0.3720114900166837 -0.031394639403781725 -0.09088667829522147 0.10761473229693098 0.2636357857528064 0.053383210462269126
-0.12142671507150375 -0.28350215515802957 -0.1267970603862905 0.05761630343762539 0.06918340536329172 0.1816964278753164 -0.11522327339194159 -0.06960587289269154
-0.029517178951646638 -0.07277616953074745 0.0616825761222813 0.10493699118879936 0.06159074424941797 0.25825393711450256 0.07220383718153534 0.006046662925939612
-0.10343273380228214 0.08849101385656184 0.42895211727669363 0.02046251214132675 -0.0038655908685711086 -0.24508946710594492 0.3273897250417261 -0.037269468176199916
0.20737053789144932 -0.17857935497280117 -0.006841821006729162 0.09032876325058081 0.06688961499420275 0.08543525921073504 -0.07927182474682348 0.1822124794217433
0.23105629604365666 0.07805187785746252 -0.017461411819266744 0.177440938844872 0.1116391318376366 0.09285951408059695 0.2052165368749572 0.15681435081090403
0.09387680392776399 -0.07567969451212395 0.14120901799349506 -0.177075743737714 0.10273459098022392 0.08883509173257538 -0.03702688604084923 0.06887052479392229
0.04734915973130623 -0.15257914662708222 0.03505052698119038 -0.10797519928293556 0.16529435590262506 -0.053237801378213385 0.18450277796597525 0.10492894478943592
-0.06163865727032168 0.0776398562856912 0.28379036073096475 0.05095297662048551 0.06706032755572465 -0.012396325264979979 -0.005197123904345568 0.14088855467889674
0.12752637373380724 -0.31879748783339085 -0.007239283853216593 -0.10639387932413907 0.11070332679550247 0.09379950795077703 -0.10794974678884212 -0.02981040499942741
-0.17274472191454376 -0.1290716430305335 0.10003920421897576 -0.1574887874445685 0.08935781405956505 0.18982997672727783 0.016568696857593837 -0.11544098191918079
0.028849873391381526 0.12328590620425882 -0.04089444206120953 0.11891530791207665 0.06785293776353765 0.01194540876432355 -0.00866861706155584 -0.14329075971821556
-0.19637974302560207 0.2799540401242007 -0.15831458898190653 -0.12352122876657043 0.0946947340748321 -0.1547524134180511 -0.20688552379007955 0.0966528835351965
0.1902533825621721 -0.1693478514052636 -0.19563870290179147 0.053391001996130776 -0.3318304994796162 0.1789275941388452 -0.15490624888592064 -0.05984553131068186
-0.3423105013862344 0.08010950886388143 -0.4190640842752146 0.033190207837839256 0.3866301564857744 0.04677410691143263 0.3188445979117493 -0.037293454222585606
0.21505232410262276 -0.1508001664729059 0.1407610482174287 0.40944720917977867 -0.352401994563166 -0.14510237902346296 -0.00952442281476206 -0.1019298117813765
-0.38831002211258886 -0.11880208245877734 0.40896092055856537 -0.0015732576464580245 0.12938536414153606 -0.1974479455973518 -0.030704467888168042 -0.10795211858554143
0.22089220407347676 -0.19846070346599057 0.18316680664419802 -0.09615718115557098 -0.10707147578961543 -0.0628270625771401 -0.016752038253647857 -0.1472933788350874
0.045504415009491 0.0944760922739012 0.14076071313192315 0.023308778377668975 -0.10879226266226263 0.08083547799465608 0.029923121522545323 -0.055296321165823926
-0.02809106196298082 0.008693802887240868 0.15590232941868706 0.21785079952834943 0.12521837947364017 -0.2804929975315105 -0.10767123826828474 0.14985056984508707
-0.10197105852403457 -0.12159896492699708 0.1714614434851943 -0.03579631542083641 -0.01907934575124273 -0.016455051529609285 0.29374649880943626 -0.08726209830946087
00000000: a69d 68c6 fa8d ccbf 617c 0ff1 10c1 c9bf
00000010: 22ac 46d1 368b c63f bdcb 2e93 24e9 bbbf
00000020: 0730 a6ac 2e92 b83f 90ff ccb9 e3d0 b63f
00000030: b174 3bd2 532b c4bf 5efd 1cde 6d79 b1bf
00000040: 6d89 7b80 88f7 b53f e2e5 f854 f8a1 733f
00000050: 326c 756e f3ec ae3f b5e2 f2c4 5843 cc3f
00000060: a5de 11c8 4756 ccbf 9332 bfa6 f46e ccbf
00000070: 6f33 60d0 60df c3bf 5a31 4084 c3d2 c83f
00000080: 6c5f 4223 ee74 c33f 0daa 921f 7883 c8bf
00000090: 5014 392a 9674 babf df96 0d42 2b53 c43f
000000a0: 24fb 642a ec5b bd3f 10b9 c8cf 1b9e d5bf
000000b0: b4c3 243c 88c5 c4bf e7e9 ca3a f1d3 6dbf
000000c0: 492c d471 73f8 b43f 4647 ea65 7aa1 d1bf
000000d0: be93 8e3c 60d3 843f 29dc 4d72 add1 cdbf
000000e0: 78d7 a4c3 8980 a63f c2f9 d597 365a d6bf
000000f0: 3a14 0573 6ead d63f c13a 946b 8a3a cc3f
00000100: fe08 e3b0 c55c b43f 38f9 2332 4289 b73f
00000110: 64b8 61ca ca04 d03f 1e3d f66d 20fb c7bf
00000120: ced0 a31f 247b cf3f 1f5f 1781 9ed7 dcbf
00000130: 20cd 39a5 ace4 a13f fa4b a3e8 40a3 adbf
00000140: 199d 5fd9 0c39 c0bf bf94 a91d 583e b9bf
00000150: f174 e1da e6e4 ba3f 7c95 57f5 c54f 8f3f
00000160: 0e8c 8b42 fde8 c63f a396 338f e3df b7bf
00000170: 29e6 e7e8 d15e adbf 02b3 c396 02d0 b7bf
00000180: f4cc 2614 5637 96bf a063 83b8 185c c8bf
00000190: e67d 93fa a26c c83f fc99 e800 5071 d03f
000001a0: 8543 d9fd 0128 c13f 48f2 655c c1ed b4bf
000001b0: 3124 a83c eb8d d13f 48d0 41fb 7273 a13f
000001c0: bade aeef cba5 ca3f 31ec 02e2 4e5c a5bf
000001d0: e3ab 76d8 4f9c 73bf f21f bd5c 72c9 a0bf
000001e0: 4c5e ad14 6209 c63f 6083 32a0 4db8 d6bf
000001f0: 6242 2a36 df78 c73f 3663 a8d2 9f73 b2bf
00000200: 8395 db74 8f71 bf3f 5388 246f a21c b53f
00000210: a270 2ead d46b c33f 789c 5ea3 cb0c c6bf
00000220: 9ca5 42ac 6e34 bcbf e2bb 0cfd a4d6 d6bf
00000230: 42ce b4af d12b cb3f c9d3 16e6 a2d6 c03f
00000240: d53d 04f4 b4bf c83f 8cd7 3798 44e4 b5bf
00000250: 1158 6e47 7aa5 afbf cb7c 7ca9 7499 b03f
00000260: 7eda eb3c d4c9 abbf 659e f2f0 b3df babf
00000270: 52d6 d9da 5d07 c9bf 10e2 7113 5791 793f
00000280: 0757 ba30 1e70 b9bf 2c60 8e92 a5db a8bf
00000290: 2f79 a566 4490 663f 67d0 97ce f7b7 6e3f
000002a0: 318c a4c5 08df c0bf 1c06 b583 6abc d0bf
000002b0: af85 b698 788b af3f d134 1fb2 d6bc 9a3f
000002c0: 7f2f d905 f02f cd3f 4931 4c93 6c9f d1bf
000002d0: 9fe7 d647 09cf d73f cf95 044b f512 a0bf
000002e0: 5988 eb6e 5944 b7bf 217a c89b a38c bb3f
000002f0: ab44 77a1 68df d03f 808e 2e4e 0b55 ab3f
00000300: fbc2 173a d215 bfbf caf3 2f39 e624 d2bf
00000310: 6145 cbd5 e23a c0bf 6447 f655 e27f ad3f
00000320: 6914 76ef 00b6 b13f 0923 c31b d441 c73f
00000330: 4fda f4be 457f bdbf 3c03 afc3 b0d1 b1bf
00000340: 03ec 1159 c039 9ebf e40d 1084 75a1 b2bf
00000350: ca40 5bce db94 af3f 9de9 4b91 26dd ba3f
00000360: c939 9370 d288 af3f f514 7e85 3b87 d03f
00000370: a824 575f f37b b23f a100 45b8 62c4 783f
00000380: d944 0451 917a babf 15fa 80da 58a7 b63f
00000390: fb36 d094 f373 db3f da95 c3f1 1ff4 943f
000003a0: 46ff 864b bbaa 6fbf 7834 e876 175f cfbf
000003b0: fb70 8608 f4f3 d43f d084 e9d5 fb14 a3bf
000003c0: f4e7 3227 1e8b ca3f 97aa ac34 b0db c6bf
000003d0: 16f9 8057 2b06 7cbf 98a3 0c2c c91f b73f
000003e0: f795 d784 ad1f b13f 8142 3ccc 15df b53f
000003f0: 5827 c886 284b b4bf 0a0d 0510 bd52 c73f
00000400: 596d 85b1 4093 cd3f 3b08 ca36 35fb b33f
00000410: 1fad d282 67e1 91bf a4b6 a77a 62b6 c63f
00000420: 9e4c 32d4 6194 bc3f dc3e 1920 a4c5 b73f
00000430: 07f8 3c15 8944 ca3f ed5d 231e 7e12 c43f
00000440: 3006 b96a 4f08 b83f a69d e694 be5f b3bf
00000450: d056 1719 2313 c23f 9259 2200 6baa c6bf
00000460: 4c91 6d6c d04c ba3f a583 ba85 e5bd b63f
00000470: 4d80 3c21 30f5 a2bf eff3 a5ab 7fa1 b13f
00000480: 1bfd 1329 263e a83f de4e 68a6 b687 c3bf
00000490: 90fd 2e86 24f2 a13f ba04 b33d 43a4 bbbf
000004a0: 2357 688e 5d28 c53f 4926 a92f fc41 abbf
000004b0: 1c48 b17a c99d c73f 2f40 4692 9fdc ba3f
000004c0: ce6f 4a22 1a8f afbf 9cf9 9ca3 34e0 b33f
000004d0: 3e9c 900b 9f29 d23f 840b 7030 8216 aa3f
000004e0: 8ffc b599 dd2a b13f a64f d49c 3e63 89bf
000004f0: ff20 3d53 9449 75bf 3900 5ddb a208 c23f
00000500: e736 48c2 c852 c03f d5a5 1294 2d67 d4bf
00000510: 7f1f 5676 f0a6 7dbf 6416 3118 a13c bbbf
00000520: 3324 25a0 0d57 bc3f f58b 079b 3e03 b83f
00000530: 8cce 1138 98a2 bbbf 3754 366a 9e86 9ebf
00000540: 7afc 96c1 7f1c c6bf c31c d46a 6b85 c0bf
00000550: c338 7056 2b9c b93f b0d2 c7b3 9728 c4bf
00000560: 3423 0759 27e0 b63f 730b ec42 594c c83f
00000570: 9414 906c 62f7 903f ac04 f649 8a8d bdbf
00000580: f5c1 d63a d28a 9d3f df7b 3447 aa8f bf3f
00000590: 726c 7bc6 1df0 a4bf 43e4 79ce 3b71 be3f
000005a0: 5ac5 a164 cf5e b13f e649 d79f d576 883f
000005b0: 3458 3f16 dac0 81bf 7784 6703 5a57 c2bf
000005c0: fa27 f2ae f822 c9bf 5ddb ad59 c4ea d13f
000005d0: 9c17 1407 a743 c4bf 0606 ea55 169f bfbf
000005e0: 216f f401 ea3d b83f dfc5 4d55 edce c3bf
000005f0: 41dc 588f 397b cabf 2e07 d94d 3ebe b83f
00000600: 7669 070c 395a c83f 1a7c b7bd 30ad c5bf
00000610: 5ac4 6563 b00a c9bf ffb6 f2be 1056 ab3f
00000620: 9423 c5fd b53c d5bf 95d2 9672 19e7 c63f
00000630: cc9d 74cc f7d3 c3bf 060e 95cf 12a4 aebf
00000640: d4ff 214e 6ae8 d5bf 1e43 ab88 0e82 b43f
00000650: 9af9 382a f2d1 dabf 4603 6c92 4efe a03f
00000660: a93d 7069 8cbe d83f 77ea f796 c6f2 a73f
00000670: 0762 222c f367 d43f 6654 7bac 2018 a3bf
00000680: 188b 79a5 d586 cb3f 1ec2 9d7b 6b4d c3bf
00000690: 2380 5241 7504 c23f 5366 3711 6234 da3f
000006a0: f869 6c18 c18d d6bf 0221 3dfa b692 c2bf
000006b0: bb7c 0564 8a81 83bf 80a4 1678 1218 babf
000006c0: d1af 6b47 12da d8bf c96d db32 d069 bebf
000006d0: a807 c96c 6a2c da3f 9228 f188 b8c6 59bf
000006e0: 4ed3 c819 b38f c03f bc62 806a f945 c9bf
000006f0: bddc aef5 fd70 9fbf 40db db02 c0a2 bbbf
00000700: aced 371c 3246 cc3f 0dbb 760b 2967 c9bf
00000710: 6ff2 1f8a 0272 c73f acb6 56cc c19d b8bf
00000720: 92d1 d946 0969 bbbf 7093 1233 6f15 b0bf
00000730: 3256 c341 7227 91bf 07cc 816a 82da c2bf
00000740: 0229 94cc 5a4c a73f 21fe 91ce 952f b83f
00000750: b34b bb71 7204 c23f de00 5ea3 41de 973f
00000760: f237 314a cfd9 bbbf 91f4 5746 a2b1 b43f
00000770: 4c92 55b1 2aa4 9e3f 7d1e fea5 cc4f acbf
00000780: 7c7e c341 e7c3 9cbf 42e9 a078 0ece 813f
00000790: fb9a 1c87 9bf4 c33f f9db b0f5 88e2 cb3f
000007a0: 7a44 59e6 2707 c03f 01e9 c9e6 98f3 d1bf
000007b0: f104 159f 5790 bbbf 35c4 62b0 4d2e c33f
000007c0: 92cd 7f79 c61a babf 61c2 9619 1c21 bfbf
000007d0: 439d 25d6 72f2 c53f 737e 1908 e553 a2bf
000007e0: 6766 1f38 8989 93bf acd5 b1d0 97d9 90bf
000007f0: b4dd 6c1d becc d23f 7962 6b12 cf56 b6bf

rnn.bias_ih_l0 f8 [80]
0.18058254750179983 0.33232203441230146 0.317593937963424 0.05172542063466514 0.12309117795261591 0.22733211565805456 -0.0006647685718191503 0.27363493467515515
0.5015965507898564 0.6657617617696784 0.36466124931751653 -0.09109693785990912 0.15956533290431776 0.257513337269968 -0.11612488050331317 0.007030531273493558
0.042458463499927254 0.0648776906607946 -0.10681634844399973 -0.20204542165808548 0.053885302149099285 -0.04017983315003454 0.06995749432683003 -0.15963372338854873
-0.16815121930385843 0.2724516585834096 0.18696461904562256 0.14518298753257208 -0.17499488806325258 0.024916493037634154 -0.0946120367844066 0.16169877981312353
-0.09598281929983264 -0.04316521645072273 -0.21666957389556551 0.09222186339412339 0.0540921622230571 -0.14713147824953687 -0.023133018605185903 0.16325451311844572
-0.18054637529543588 0.1756721436204741 -0.25595306755411795 -0.18416768777963993 -0.004808579001658579 -0.11516499225655447 0.23025452929265394 -0.1921367422494689
-0.035898705767658856 -0.012140766948628777 -0.08302310320870876 -0.05793246414454154 -0.032436217348529625 -0.15455866891162842 0.09012865089163656 0.18625467746575738
-0.08361940647994208 0.038815022693277156 0.15622362760994235 -0.15132220602154303 -0.019858192062434048 0.19189355205222638 0.08056718581076815 0.06694256824269844
0.027439241328857868 0.18165791114377808 -0.09436795536825789 0.10884683741528187 0.27624907199063975 0.5293708865345709 0.42681703926945924 0.2419484752605876
0.12337966780163805 0.07227346772464875 -0.047641606805112174 -0.02554090951941693 0.07333354920623111 0.09949716236870436 -0.09139732220964021 0.1708124975302209
00000000: 05d2 df33 541d c73f 18a0 62a3 c344 d53f
00000010: 137d 3d86 7553 d43f 83d6 fe1b c17b aa3f
00000020: c78b bb47 e782 bf3f 8879 0a01 3819 cd3f
00000030: bd62 3fa3 7bc8 45bf cb43 de19 3c83 d13f
00000040: 07b9 ad35 140d e03f b14c 379c eb4d e53f
00000050: acfb fb22 9c56 d73f ffc1 df00 2152 b7bf
00000060: 751f 3307 a36c c43f e3ee 7638 197b d03f
00000070: c97d 0334 5cba bdbf 3562 4ade 0bcc 7c3f
00000080: 8658 57a0 1dbd a53f 4ecc a007 d39b b03f
00000090: 24c0 3ef3 5058 bbbf 24fc 29d7 9fdc c9bf
000000a0: c450 eeb4 da96 ab3f 0820 ad7a 7392 a4bf
000000b0: 556c 3efe bbe8 b13f 8771 a5ba e06e c4bf
000000c0: fba6 d8a9 fa85 c5bf 34d4 d614 d96f d13f
000000d0: a4af 27e6 74ee c73f 18a9 b12b 5b95 c23f
000000e0: f073 9984 3b66 c6bf 2f1d e98a b583 993f
000000f0: 9406 cc93 7e38 b8bf 38dc 8cad 8bb2 c43f
00000100: 7fe3 de7d 5492 b8bf 3613 f651 c019 a6bf
00000110: 08b9 f51e d4bb cbbf 2e02 411f da9b b73f
00000120: 0c98 6fc7 f7b1 ab3f 649e a54b 34d5 c2bf
00000130: 7fd7 7799 2eb0 97bf ff51 621d 86e5 c43f
00000140: 1612 a7c4 241c c7bf fb85 d5bf 6c7c c63f
00000150: 142c 9df9 8861 d0bf c22a ff89 ce92 c7bf
00000160: 2b73 d618 29b2 73bf 8cd0 62f3 737b bdbf
00000170: 6aae 88fc fa78 cd3f 4925 29d0 ef97 c8bf
00000180: f04c 7bae 5061 a2bf 4c16 f127 42dd 88bf
00000190: b005 1889 0041 b5bf 7d47 c1ed 52a9 adbf
000001a0: 4e8e 6fd9 7a9b a0bf 4df5 2416 94c8 c3bf
000001b0: 3f1e 03d8 ab12 b73f 67a2 387a 31d7 c73f
000001c0: 936c 24d8 1468 b5bf 8b4b 1f0a 90df a33f
000001d0: 5c3d b9c5 22ff c33f 75b3 02ab 865e c3bf
000001e0: 6e05 ddb5 b455 94bf bd54 30c9 f78f c83f
000001f0: 0f21 3014 0da0 b43f 0b09 50ed 2523 b13f
00000200: 5ab9 8950 0819 9c3f ad0a b601 9140 c73f
00000210: 9dd8 1892 7f28 b8bf 06bf f8e6 62dd bb3f
00000220: 6a02 7096 10ae d13f 35db a336 9bf0 e03f
00000230: 8c6c 426a f850 db3f 50d8 47ea 2af8 ce3f
00000240: 8b0a 3356 cf95 bf3f dbf1 3e94 8380 b23f
00000250: 5c4e 500e 7b64 a8bf 694b 626c 6527 9abf
00000260: a655 8acb fcc5 b23f 6b1b 6b62 a578 b93f
00000270: cd16 d59d d065 b7bf f5f7 5115 2fdd c53f

rnn.bias_hh_l0 f8 [80]
0.240586960629699 0.09696936922637263 0.3234961985053401 -0.09657828183897502 0.19263540388378342 0.07795926976991656 0.0010088851499902767 0.11202069545930422
0.3600349234018555 0.7527679730505001 0.6637819064634937 0.24453726390515088 -0.07388168238117417 0.11989163650626473 -0.2137523712622093 0.16758879970134277
0.10897308964529023 0.14565511225446062 -0.05171850771762442 0.11289230400509973 -0.1406884280812324 -0.12130747673523957 -0.05307316820979117 -0.22118970502459617
-0.0710813448979974 0.030886341667897423 -0.16388752769910553 -0.049787620224996575 -0.06726788198548596 -0.18798571016461318 -0.22900116904568307 0.05030163263447357
0.07673385043846002 0.015985687966315245 -0.0426750476285141 0.05022243392978289 -0.13034859958152367 -0.0395207459325662 0.05291243494324531 -0.11994253965836806
-0.2675501129835011 -0.1283576042232682 0.08564918337952948 0.09621758293511946 0.26100836285567924 0.11931398804625637 0.010952903206418972 -0.09933302558992302
0.061776200486155966 0.23713447037322408 -0.17474344584481674 0.20095555696694714 -0.16039894817347647 0.03985958260280622 -0.04038677550568677 0.008515727809271085
-0.044848544556247635 0.09996017931521065 0.19025266437027255 -0.21912704920887519 -0.01384393439298517 0.07524538468047705 -0.05520739681366725 0.23623644870534513
0.13101575247349595 0.4021607645373327 0.3286863970344307 -0.07764895843070371 0.35136770311513627 0.5227565144003621 0.597420001644147 0.27034025372967235
0.061437239451189486 -0.08500062947955964 -0.006303997514035486 0.2585532974693948 0.24137042731520844 0.2166620573071728 0.1161316712777178 -0.07318400343871272
00000000: 05d2 dfb3 8dcb ce3f 3d80 8a0d fcd2 b83f
00000010: 177d 3d66 29b4 d43f aa94 00b2 5ab9 b8bf
00000020: e0c5 dde3 46a8 c83f 03f3 1482 23f5 b33f
00000030: 594f 602e 9287 503f 250f 7967 63ad bc3f
00000040: 0672 5beb cf0a d73f a84c 37dc ac16 e83f
00000050: d7fd 7d8d b33d e53f f11e 903f ff4c cf3f
00000060: 15c1 99f1 e8e9 b2bf 4dbb dbe1 37b1 be3f
00000070: eebe 01da 3c5c cbbf 2053 f2be 8c73 c53f
00000080: 4cac 2b10 a9e5 bb3f 2566 d0a3 d3a4 c23f
00000090: 6f80 7d26 d97a aabf be07 ac91 82e6 bc3f
000000a0: d86b c412 1402 c2bf 0190 56bd 010e bfbf
000000b0: 6527 8303 682c abbf 8a71 a5ba f14f ccbf
000000c0: ed4d b113 6332 b2bf 2a43 6d4d aba0 9f3f
000000d0: 5c50 d839 44fa c4bf cb5b 3951 c37d a9bf
000000e0: d1e7 32c9 7738 b1bf 50dc a26e ea0f c8bf
000000f0: 5203 e609 e94f cdbf d870 33b6 22c1 a93f
00000100: 7f1c 2162 d4a4 b33f 97d9 135c 8d5e 903f
00000110: 49e4 d6fb 80d9 a5bf 3304 823e c1b6 a93f
00000120: 001a 244e 43af c0bf a679 962e 103c a4bf
00000130: 2614 44b3 5617 ab3f 155c 3be5 8db4 bebf
00000140: 1789 5382 8a1f d1bf 027a 2aa0 056e c0bf
00000150: c44f 8bd9 1aed b53f 5daa 012c b7a1 b83f
00000160: 31a6 9c6b 5cb4 d03f 802f 9d8c 5c8b be3f
00000170: cce6 8ac8 796e 863f 944a 52a0 e36d b9bf
00000180: 22b3 8451 21a1 af3f 7fee 801d 6c5a ce3f
00000190: c902 8c44 fe5d c6bf 2dae 8f64 e9b8 c93f
000001a0: 81e3 5be6 f387 c4bf b32a 6ca7 7968 a43f
000001b0: 5ac3 f94f 93ad a4bf ea26 8aa3 b170 813f
000001c0: 3ed9 4870 63f6 a6bf eaa5 0f85 fd96 b93f
000001d0: 5c3d b905 335a c83f 75b3 02eb 5a0c ccbf
000001e0: cd0a ba6b 355a 8cbf a1a9 6012 4843 b33f
000001f0: debd 9fd7 2444 acbf 8d04 a8f6 fe3c ce3f
00000200: 2c37 11ca 1fc5 c03f 5505 db80 00bd d93f
00000210: f4c9 79ab 3209 d53f 0641 0759 cde0 b3bf
00000220: 6b02 70f6 ce7c d63f 34db a3de 6bba e03f
00000230: 4b36 218d 101e e33f 17ec 2335 414d d13f
00000240: 1d15 66ac b374 af3f 260e c1eb 99c2 b5bf
00000250: bf72 8272 38d2 79bf 4edb 3921 238c d03f
00000260: b12a c5e5 39e5 ce3f a48d 3511 95bb cb3f
00000270: 2de9 2a22 ceba bd3f 3b10 5cd5 2fbc b2bf

V.weight f8 [1, 20]
-0.14036437149528916 0.2503877385817662 -0.22135538746095862 0.19374770348573042 0.1995556229509739 -0.3669259687553199 0.22822187911481473 -0.1639458712941075
0.21041563850480277 -0.5774689875449621 0.36155858871205887 0.29611183508945044 -0.31411175745279524 -0.14475244645744462 -0.05273963419020547 -0.17734573780319804
0.0724472014720356 -0.3391622825698675 0.2373754761510309 0.1444848364567118
00000000: 3145 8cb0 75f7 c1bf 1ecc 214b 5a06 d03f
00000010: c817 f892 5f55 ccbf 87ba 1289 b9cc c83f
00000020: ea56 27e5 098b c93f a4dc f60e b77b d7bf
00000030: 50d0 83e1 5f36 cd3f 8fde c2a5 2dfc c4bf
00000040: 96f8 f84e e6ee ca3f 0ab7 fe3d a07a e2bf
00000050: 1bcc 86a2 c623 d73f 2bbc ea0d 7ff3 d23f
00000060: 3120 6333 681a d4bf da7d c687 3f87 c2bf
00000070: 3491 1978 b000 abbf a390 f9df 43b3 c6bf
00000080: 6c55 0259 e68b b23f 9927 ebb7 d5b4 d5bf
00000090: 2776 78d1 5162 ce3f f3bb aca7 7a7e c23f

V.bias f8 [1]
0.13981130568718497
00000000: 66cd c43c 56e5 c13f

best_model_score f8 []
0.002044633973938981
00000000: 4d89 9c81 e8bf 603f

exp_avg f8 [80, 14]
-1.024296968789326e-06 -3.201066449045987e-07 -2.556594729433522e-07 -4.206127138805892e-07 -2.9174874989404223e-07 3.653123258716499e-07 -8.622669347352217e-08 -9.910765244971064e-07
5.967761679182507e-07 4.141024417266277e-07 -4.105364696741724e-07 3.6552720860711636e-08 -1.1917826542891246e-07 -2.3665712354382008e-07 -3.2889934455422205e-06 -7.027456386176293e-07
2.7942385939544397e-07 -6.842044102240305e-08 -6.740172437943981e-07 -3.098056337599838e-07 -4.7413012731632727e-07 -4.848758481599455e-06 7.72694914425748e-07 2.16944943379043e-06
-6.861195785446178e-08 5.386867164388507e-07 3.977049106063212e-07 1.372370528448782e-07 -2.5016553690329863e-06 -5.144102436923017e-07 -2.573525873596946e-07 -5.8560741219119546e-08
-5.379947094884964e-07 3.807499906619276e-07 -1.0642102006655934e-07 -2.1238986160631486e-06 8.914862208476586e-08 1.0839979980900335e-06 2.772168041767125e-07 -3.0613910600880824e-07
9.264953675255113e-08 -1.7275122145224602e-07 6.33682363738656e-07 3.1857794307716085e-08 5.987542246540712e-08 1.2528532481602155e-07 1.1222246351177014e-07 3.2548946723503053e-07
1.5442178829291588e-07 -9.965032874959849e-07 1.260892405678272e-07 3.89531779001368e-07 6.670086958431362e-07 1.892232387982586e-07 -1.357180371121689e-08 2.594851315937714e-07
-2.0751931618010277e-06 -4.6502347016083213e-07 -9.535801174530152e-08 -4.318855672729963e-07 -6.469514337019318e-07 4.093668387182493e-07 -1.5440885372602514e-07 -1.4662540741873538e-06
3.85946621237119e-07 9.563142960521364e-07 8.670489446994364e-08 -1.1600140964671056e-08 2.241673940788643e-07 -9.738887022320753e-08 -1.1303935067747719e-06 -6.697257630694497e-07
-2.3198411215366866e-06 -1.4964903397376401e-06 -1.3253359699177907e-06 -4.501802248665316e-07 1.3316122887352138e-06 -8.650602636207489e-07 2.5829503241541743e-06 1.467250918888419e-06
-6.83747681053542e-07 2.3990059429521508e-08 4.077959875138937e-08 -1.1418810956230543e-06 -2.7322779444702754e-06 -7.229618897836145e-07 -8.803302003679787e-07 -1.0653645952484216e-06
-9.295620267425692e-07 8.586775527642537e-08 5.5246851502298936e-08 -2.4543731088545678e-06 7.181465006502741e-07 1.1965502710091325e-06 -5.508967577975204e-07 1.1635396869394744e-07
-2.388272413725082e-07 -5.664939368676452e-07 -1.980368425620498e-06 -5.190938765864692e-07 -5.168199936540531e-07 -7.016563038375809e-07 -7.653274435657999e-07 1.712389600472719e-07
6.272247437082785e-07 -4.884641627236562e-07 7.493579274457135e-07 6.943931941007158e-07 -3.7296351416485735e-07 1.572304096745052e-07 -2.767651075205084e-09 -4.2356667579695857e-07
-3.81849801530103e-07 -2.801744940347056e-08 -2.4158191959623083e-07 -3.6790315499272384e-07 1.955808063896576e-07 -3.326266162943603e-07 8.400721901268133e-08 -7.928361766945441e-07
5.607806884355668e-07 3.0201990591161204e-07 1.900910146623123e-07 -1.761201804944759e-07 -7.028770136864891e-08 -2.873151367254608e-07 -1.2339674485361154e-06 -1.1350761288472473e-07
-8.891522780254733e-07 -9.805888581082563e-07 -7.752697962098172e-07 -2.3206667680820354e-06 2.2659458606269296e-08 -2.0706462402936068e-06 -1.420820958258923e-06 1.1038824003331142e-06
-3.6500436495092265e-07 -9.050009729159819e-08 -2.73154092893525e-07 -4.848372085933387e-07 -3.983371840233634e-06 -3.8186904460225625e-07 -2.7081552602457646e-07 8.054823622746256e-07
-1.216083676441371e-07 -1.0790810200555695e-06 3.1123778917845814e-07 -1.7715220329693864e-06 -3.30846148327207e-06 -1.3381798216709207e-06 3.4639325080174363e-07 -6.961185057602392e-07
1.0677736288512706e-07 -3.0410208297785264e-07 -9.672867075448148e-07 -3.7275341330258075e-07 -2.511124903583542e-07 -4.326065281725078e-07 -1.343515650618434e-07 6.857785321872317e-07
1.2620831562636492e-07 -1.783818617994012e-06 3.5157221431395144e-07 7.142154744696496e-07 -1.4584905774695274e-07 2.7275668487459726e-07 7.470234984543309e-08 -3.8122093554416157e-07
-2.0111959589759084e-06 -6.880860972137948e-07 -9.693379015328078e-07 -1.5092374569558318e-06 -1.6063920305875007e-06 -1.57196720443714e-07 1.5081526823049864e-07 -2.042773166237024e-06
1.5393920957677228e-06 1.4007848615964967e-06 -2.810497061038631e-07 2.89674568191654e-07 -2.827669483376111e-07 -7.104480035901635e-07 -1.0675104893558445e-06 -2.8468543261571195e-07
-2.952671601973272e-07 -6.510089408950288e-07 -1.2216260481383174e-07 1.3465822945239167e-07 2.6183008420572085e-07 -1.129614167950287e-06 5.49574201268541e-08 1.0245171061058258e-07
3.32734946839788e-07 2.050906654965849e-07 9.611829194821123e-08 -3.055566723368109e-07 -3.447070815516238e-07 4.307308029434522e-08 4.3811382281243254e-07 5.9292209957877005e-08
3.6750355122766196e-07 -3.447957612852158e-07 -1.2415010168698897e-06 -4.181159138490364e-07 1.629222983887636e-07 -3.1985901434831136e-07 -3.086480597896691e-08 3.870692172952314e-07
3.235805222932564e-07 2.0876696932119868e-07 3.416782267108045e-07 2.6790546675735734e-07 3.9167923470290346e-07 8.962927987109356e-07 3.0392965784578704e-07 -3.66489696073332e-07
6.846430691363798e-08 -9.155152842653438e-07 -1.3566619997544895e-06 1.0355729590866215e-07 7.366962593549056e-07 1.1042696223911976e-07 6.179850201729081e-07 4.891297784031749e-07
1.9801263320381906e-07 4.748754162989654e-10 -2.5115280422477065e-07 8.835017255113047e-08 5.834375814663292e-08 -1.1881538894696964e-07 -2.070414780424742e-07 8.504907858255663e-08
3.846039305546622e-07 1.5493662705059307e-07 -2.666583408010179e-07 -2.1523687059851392e-08 7.902444562304343e-08 -1.9785647048893728e-07 -1.7211458173272133e-06 -2.123290641573811e-07
3.0396804304536664e-07 1.2696119964074127e-06 1.9864009027857595e-07 -7.325637532493601e-07 7.332132438675093e-07 -1.900004830079106e-06 -2.422758614916858e-06 7.270565366584267e-08
1.2314257053119971e-06 -4.423837074017521e-07 6.705270547419468e-07 3.619696627574454e-07 -1.1546720539904995e-06 -4.4794842644726865e-07 -2.362610777273794e-07 -9.306967841639233e-07
00000000: 284d 6f6d 522f b1be d183 ade9 637b 95be
00000010: f535 c540 3228 91be 9afe 5f47 123a 9cbe
00000020: 60c0 5392 3494 93be a4d7 aa99 0484 983e
00000030: 3ec4 9808 7425 77be a8bb a629 a4a0 b0be
00000040: 2dba eeab 4406 a43e 4c35 90cc 39ca 9b3e
00000050: b92e f67c f68c 9bbe 5769 1888 c49f 633e
00000060: 66bc c637 defd 7fbe e608 b412 7ac3 8fbe
00000070: c224 be44 0f97 cbbe fadd 8600 8a94 a7be
00000080: d44f 4321 77c0 923e b869 b120 d15d 72be
00000090: b8cc ff97 c39d a6be 408f 3096 6bca 94be
000000a0: 763e 2d5a 7ed1 9fbe 6bc3 2b95 5056 d4be
000000b0: 5ab9 1516 66ed a93e 14f1 6c70 db32 c23e
000000c0: 7096 d353 fa6a 72be db8c ed9d 4813 a23e
000000d0: 5f71 cdb1 84b0 9a3e f9dc 06e2 6d6b 823e
000000e0: 764a 5e95 43fc c4be e8dc b916 c042 a1be
000000f0: 104d 22a6 4845 91be a17a aae8 8670 6fbe
00000100: 07c0 a5e0 560d a2be 853f 042b 3c8d 993e
00000110: dcee 5062 3291 7cbe 67ff be9c 09d1 c1be
00000120: 6f98 3325 3fee 773e 584c 4467 bc2f b23e
00000130: e46d ff65 8c9a 923e e5aa ef06 6e8b 94be
00000140: ede0 31e3 d3de 783e 72b2 47d0 af2f 87be
00000150: a08c 2641 4a43 a53e 3a6a 257d 801a 613e
00000160: acc9 4d92 9b12 703e c605 145f c5d0 803e
00000170: 51ad da74 de1f 7e3e b792 d6d0 ddd7 953e
00000180: d15f 1b6a e4b9 843e a5d8 a3f3 f2b7 b0be
00000190: d618 6bb0 64ec 803e 189c b0e1 1a24 9a3e
000001a0: 38aa 41a2 8f61 a63e 3cef de35 a965 893e
000001b0: 40b8 1791 2d25 4dbe 950c 7dad eb69 913e
000001c0: d9ab 7181 7168 c1be b9d4 bbd9 0a35 9fbe
000001d0: deb5 29e2 f398 79be 5497 f5cf bcfb 9cbe
000001e0: 04e6 773f 45b5 a5be 51cc 9365 de78 9b3e
000001f0: b736 0da4 72b9 84be 0e40 6267 8399 b8be
00000200: 33a8 e530 83e6 993e 7897 35b0 560b b03e
00000210: b810 6da2 5046 773e e01e 35b4 3ee9 48be
00000220: a199 3840 5516 8e3e 8eb3 a51f 8324 7abe
00000230: 4849 fecd 00f7 b2be f5ff 1f87 e678 a6be
00000240: 4c17 d424 d275 c3be e87e 8687 601b b9be
00000250: 1b33 444f 463c b6be b357 3d91 0936 9ebe
00000260: 1e99 f531 3b57 b63e 58a7 1ca3 cf06 adbe
00000270: 9704 2bf5 d7aa c53e d609 3972 cb9d b83e
00000280: 2676 330d 59f1 a6be d05d d45a 56c2 593e
00000290: 406e 7b93 b4e4 653e 8cfd cb8a 5728 b3be
000002a0: 2fb6 64af 85eb c6be 7fd7 2d02 3242 a8be
000002b0: 1be3 4a95 fa89 adbe ccca a2c2 b4df b1be
000002c0: db2d a883 e030 afbe 4582 aa86 c90c 773e
000002d0: a0a4 adc7 11a9 6d3e 8bb9 d3e2 b996 c4be
000002e0: 653b 17db d418 a83e 4659 aaef 2413 b43e
000002f0: 6e5e 24c8 2a7c a2be 969a 0daa c83b 7f3e
00000300: dd12 d050 0507 90be 4183 5f57 2502 a3be
00000310: 3872 3d0e cf9c c0be bc48 a581 fb6a a1be
00000320: 06d1 5a2f 7357 a1be b029 9087 2e8b a7be
00000330: 6719 b5d8 1cae a9be 9981 54d2 b9fb 863e
00000340: 5c59 41cc d10b a53e 353c a70d e063 a0be
00000350: faf8 5982 ef24 a93e 406b 46c8 ca4c a73e
00000360: e299 dae1 7607 99be d4f0 354f 651a 853e
00000370: 4045 3b0b 21c6 27be 9a49 d2f0 d16c 9cbe
00000380: 627a f82f 21a0 99be 60fb c5ba 6015 5ebe
00000390: 98ac c484 5836 90be 4df4 ee2f 87b0 98be
000003a0: 037e 63f7 1a40 8a3e 3598 4c54 7b52 96be
000003b0: ffef 3da0 ee8c 763e 3ead bd30 699a aabe
000003c0: 1c33 6fc6 11d1 a23e 6235 ee97 a944 943e
000003d0: 8f5b 663f 7a83 893e 0aa9 9f7d 71a3 87be
000003e0: a84c b151 22de 72be c675 ac55 0948 93be
000003f0: 15a2 d68e d9b3 b4be 6c63 170b 2f78 7ebe
00000400: 7fb7 7f89 c2d5 adbe 18ae ffd9 9873 b0be
00000410: ea4e aa4f 8403 aabe fee1 3f0c 9877 c3be
00000420: 90aa 57a5 9554 583e 879e 21cf ad5e c1be
00000430: 1dcd 222a 61d6 b7be 26d1 ec88 2385 b23e
00000440: 34d2 7e2c ba7e 98be d47e 708c 1e4b 78be
00000450: 9014 be67 c054 92be 1b9a fe4b b844 a0be
00000460: d36a fde9 1cb5 d0be 3267 bed1 75a0 99be
00000470: 90c9 8547 932c 92be 0afe 5272 0a07 ab3e
00000480: d487 9a83 6e52 80be 8932 fd20 9e1a b2be
00000490: be88 d745 06e3 943e edf3 f812 a1b8 bdbe
000004a0: afde 79ef ddc0 cbbe c3b5 2346 7073 b6be
000004b0: 3400 cfa0 fd3e 973e 7bb8 64c8 9c5b a7be
000004c0: d478 b33b afa9 7c3e bc39 e51a 6f68 94be
000004d0: 568c 7afb 763a b0be 8e09 50d9 da03 99be
000004e0: ab61 8069 14da 90be 17d9 c4a1 1f08 9dbe
000004f0: 4eb1 2cdd 4808 82be 1a8c c0f0 ca02 a73e
00000500: 18ec 9c15 7cf0 803e ceb5 f44f 71ed bdbe
00000510: 5033 58f3 f697 973e 54e1 1570 10f7 a73e
00000520: c88d 0fe1 5593 83be 904c 1796 ec4d 923e
00000530: ba76 eda2 810d 743e 18cd d067 5395 99be
00000540: b84d dbab 02df c0be 0259 6054 9d16 a7be
00000550: 603a 424b 4643 b0be 7728 0c22 2052 b9be
00000560: 3bd6 65b7 66f3 babe 449d cef9 3c19 85be
00000570: f0fe e620 f93d 843e dc23 b26c d222 c1be
00000580: 9106 4e82 a3d3 b93e 3b65 4b3e 5380 b73e
00000590: fea4 ebad 65dc 92be 1177 5739 9270 933e
000005a0: 0d9f ca30 e6f9 92be 4383 87ae b3d6 a7be
000005b0: b53b 2132 ece8 b1be 4cbd 0fc6 db1a 93be
000005c0: 61ec 28b4 a6d0 93be 9c26 f4cc 1fd8 a5be
000005d0: c853 c2a2 7965 80be 04f9 fd4f d212 823e
000005e0: 0473 6ae3 3492 913e 4ea7 9de9 a7f3 b2be
000005f0: 2eed 9b51 4a81 6d3e b9b2 ba8d 6d80 7b3e
00000600: b073 a6c5 5754 963e 3492 5a92 dc86 8b3e
00000610: 002c cddf 32cd 793e e94d eb74 6c81 94be
00000620: 87c8 01c7 0522 97be 1b04 ba48 eb1f 673e
00000630: e87d 4af8 bc66 9d3e 8633 582d 0fd5 6f3e
00000640: 5a70 17b6 a9a9 983e e9c0 82cb 8b23 97be
00000650: 0549 cfcd 34d4 b4be 76b9 733c 2d0f 9cbe
00000660: 8330 28b1 f7dd 853e 2a21 75d2 2277 95be
00000670: 7f56 69d1 0692 60be d1c0 b16b ccf9 993e
00000680: e0f3 e72f 12b7 953e 0101 9fae 2d05 8c3e
00000690: 7cb4 9fbb fced 963e b192 10b4 94fa 913e
000006a0: 823b dd7d ff48 9a3e 0043 49b5 1813 ae3e
000006b0: 608d 74c5 7865 943e 68f1 aaba 3e98 98be
000006c0: 88bc 1ad3 d460 723e 7e38 a266 37b8 aebe
000006d0: 14fe c8a4 d1c2 b6be 0008 4437 67cc 7b3e
000006e0: 33b6 e334 2cb8 a83e b2e3 fda9 7ba4 7d3e
000006f0: be47 526e 73bc a43e 4413 f8c1 9769 a03e
00000700: 6141 8e8a a993 8a3e 08e8 ba5f 0c51 003e
00000710: 4b43 e1b6 c5da 90be 84ec 2dac 60b7 773e
00000720: 04ab e57e b452 6f3e 1f30 636d eee4 7fbe
00000730: 9e60 ae19 e4c9 8bbe c0d3 9c36 87d4 763e
00000740: 7632 95f9 71cf 993e 99f0 ecfb 94cb 843e
00000750: 9811 11c9 27e5 91be 54ec 16d4 621c 57be
00000760: f270 dcbf 8436 753e 2427 62eb 4b8e 8abe
00000770: c10a d9d6 43e0 bcbe b80b 1c33 927f 8cbe
00000780: d410 5997 2166 943e fece 1e27 f14c b53e
00000790: 9c9b 47b6 38a9 8a3e 1f16 c5ba ac94 a8be
000007a0: abac 7bf9 409a a83e 46f1 4b67 75e0 bfbe
000007b0: 28c9 5aa2 d552 c4be 00d9 c162 4b84 733e
000007c0: b03d b9e1 eea8 b43e b9cb f31e 18b0 9dbe
000007d0: db15 3c96 c87f a63e 3416 9469 974a 983e
000007e0: 4863 8159 475f b3be b076 9b03 b20f 9ebe
000007f0: 24be ce6a deb5 8fbe c860 4bdf 9f3a afbe
