main/forecasting/darts_logs/Air_RNN/checkpoints/last-epoch=299.ckpt (torch, 77612 bytes, 19 tensors)

rnn.weight_ih_l0 f8 [80, 14]
0.1016232248782867 0.040962123404173496 -0.15468013237620182 -0.0919843581677871 0.13768840506898075 0.20575366361311584 0.048655558337601816 0.27076687597497967
-0.05594559636503726 0.2203279432752968 0.18013544112567612 -0.10009784523852669 -0.09602648626005929 -0.028095240601337786 0.36304195983552145 0.4814522309618494
0.1848050004598037 -0.09745340819304679 -0.019428193478659105 0.024140459920968804 -0.17220470417724879 -0.040183028987209206 -0.036237524690659134 0.056404100525164445
-0.1382552249924769 -0.20186372046215664 -0.10768352893012564 -0.07861311256563391 0.35523629780531385 0.3508610681999671 -0.05601395173303998 0.03714025071850258
0.1100105152480318 0.0112481021899141 -0.07837066047906727 0.21058798794546246 0.05368347532961605 0.22807179066625988 0.09712955742787607 0.06758551060938295
-0.28185136917294007 0.023533687650383904 0.17713305232742743 0.30164297560135267 -0.07851021926848109 0.037200845198173786 0.3566222534434134 0.23935884960626108
0.14463739035569845 0.3437909330795267 0.11218603770166193 -0.05579514684463277 0.11155557606079135 0.029698946175387902 -0.04227276038311611 0.14520727111087298
0.05150287957491048 0.24834530231669466 0.13601783645107493 -0.10271831664738018 0.2814863862922453 -0.22147134848086764 0.10591779220718145 0.35456422397065496
0.04495722440047422 0.31694373598574055 -0.015094040358332967 -0.028895362090687333 -0.09776109072941855 0.03484915758442145 0.49220855065643593 0.4402450620190369
0.15656151301997862 0.1292917657564793 0.016715988515838012 0.283955937305937 0.4093088473396098 0.06795886376943985 0.11363582315878598 0.363555122911228
0.174857552736834 0.1120580136538859 0.0908618701671428 0.4604181100326001 0.2573061572712998 0.2640479299710546 -0.0589004750261715 -0.10109660197563722
0.22184879378140898 0.3486812259671819 0.23426513554576128 -0.012955610559901895 0.1188633269449707 0.3794532667846897 -0.1665911959468437 -0.04464778396700144
-0.16354877351017214 0.22037397849655072 0.46377770588339556 0.27093729732818617 0.10544072925923896 0.043782919237832285 -0.06387040124009281 -0.03442379843197331
0.10080814339662765 0.34997654144191265 -0.008237449143573659 0.3489345656192864 -0.06353147317356013 -0.20442992946792135 -0.036785980347193756 0.05867886096279668
0.3117379631304453 0.12130487069838923 0.2911764545454253 0.4727229424879167 0.06295982261664115 0.3680936456972881 0.41975202216932367 0.58583015281643
0.21983482198193996 -0.08011454629775036 -0.01944709180559006 0.12327578049344298 0.043569804592586296 -0.07750240808579224 0.12582057211715916 -0.21736585228532174
0.26208294107216557 0.18364984224264327 0.7797834239143 0.4255821709953801 0.33141278934687246 0.7492128368103445 0.6939648173326669 0.28475169591799143
0.06271739083351249 0.3496085922178894 0.34417969168625295 0.3044613468610157 0.15318099013215983 0.41146224151949934 0.5188070557732639 0.20676130267558301
0.3200096809654995 0.20055371398182836 0.5000502272592026 0.7638633012221221 0.25007545003043763 0.4155687237417156 0.56354547456854 0.11120853628711994
0.23053690062003157 0.2594948217574301 0.39130782460155616 0.01975459972149001 0.28048044650831955 0.2337692716576834 -0.010726234641105533 0.14783462040248488
0.23815206139959072 0.023303760482968356 0.3968388469943482 -0.001893299043118186 -0.0644204261666151 0.1753412130640106 0.007082756561001918 -0.005463560215003504
0.49641327360615434 0.4314890735055855 0.11132840968461512 0.1842619893949815 -0.017713984221620117 0.29489848589130135 0.24573826752356054 0.06932393752459017
0.37956079686414496 -0.022320490233958306 -0.1403967234011269 -0.18981974677264601 0.07076972684276811 0.09979243769244343 0.09580219189293197 0.30230352301465535
0.2750788973813211 0.13594796442580567 0.15288434606202217 -0.08149959125400162 -0.10749307903877468 0.07671538911800585 0.3231079614110765 0.30793565764780145
-0.02894646751441998 -0.05213628138563118 0.19967191742296247 0.06678781187026162 0.023396618863540216 0.0794988619757634 0.0972557951378057 -0.015258361525669076
0.11987681553939589 -0.15495283415424294 0.09845797776961494 0.06832644750521526 0.024194700450927517 0.13652672897902365 0.10814148003163057 0.1469918387799374
-0.2481579565858808 -0.21721206653704322 -0.20726810488678013 -0.3021974099367108 0.01166468447483663 -0.07062155766923157 0.280480105979547 0.0984634518031221
0.13195859414280184 0.049220298164509874 0.15520739426592475 0.2632219793248033 -0.23106337711533237 0.043402155403673696 0.05554117180881115 0.14802507901085837
0.02743378990491777 0.14051777891666511 -0.03438606809502593 0.1666044723149721 -0.09846830922186488 0.13895593531692801 0.19266428159901564 0.10264251355947569
0.04782834377413791 -0.051328200534540305 0.3041945766596376 -0.15695939699204747 0.010741897934395755 0.02192086241567883 0.32327448837014344 0.08143644388380251
0.4118118787993832 0.16213866901021604 0.2044118581131282 0.2782810407545596 -0.045551755065067825 0.15423219378825723 0.4939482300999517 0.1545143038561943
0.011173527150868782 0.03347751941970783 0.053230739560434885 -0.06952331183796588 0.24001724021906073 0.3250767128368617 0.07823518776507822 0.13408176846208478
00000000: 82c5 5dcb fa03 ba3f 8191 cac8 fcf8 a43f
00000010: 4cc8 f2fe 8ecc c3bf 84fe 1272 498c b7bf
00000020: 5da3 670e c69f c13f f710 20d4 2256 ca3f
00000030: df40 a89f 61e9 a83f 9fc4 4997 3e54 d13f
00000040: 3f71 7cb5 e6a4 acbf 7494 61bf b433 cc3f
00000050: b71e 3e9a ad0e c73f 2615 b32b 03a0 b9bf
00000060: 5168 091a 3195 b8bf 5257 39ae ffc4 9cbf
00000070: 946f 2458 143c d73f fc4f a404 1dd0 de3f
00000080: 025a 8eb4 b0a7 c73f e6a7 12e1 b4f2 b8bf
00000090: c3de 71fe fbe4 93bf e0dc 7bd7 46b8 983f
000000a0: 414e 54c2 cd0a c6bf a764 b5b6 de92 a4bf
000000b0: 3466 de8e b98d a2bf 5354 3b8e ffe0 ac3f
000000c0: f801 ece2 58b2 c1bf f521 d19e abd6 c9bf
000000d0: 5ea0 12d3 2591 bbbf fc93 812b fd1f b4bf
000000e0: 9842 5b06 31bc d63f 68f1 56fb 8174 d63f
000000f0: 7a52 a055 dcad acbf e004 6704 0c04 a33f
00000100: 05d7 342d a629 bc3f 33c9 61b8 3e09 873f
00000110: 3038 b97f 1910 b4bf 7afe 9314 8cf4 ca3f
00000120: 82ad c085 667c ab3f 8e9f 06d9 7431 cd3f
00000130: beaf a090 7bdd b83f dc31 c0b5 484d b13f
00000140: f48e 3b53 da09 d2bf a62e 400b 3719 983f
00000150: 06bb 64bd 4bac c63f eea8 d156 1e4e d33f
00000160: 36f0 28e8 3e19 b4bf 5ff9 043b fd0b a33f
00000170: 9d2d e424 e6d2 d63f e095 888f 4fa3 ce3f
00000180: 24a2 ad5e 7a83 c23f 9e39 8faf ab00 d63f
00000190: 1118 ff62 39b8 bc3f 4849 f275 2e91 acbf
000001a0: 0f17 defe e78e bc3f 5821 328a 6669 9e3f
000001b0: 7fd9 b676 c6a4 a5bf 7103 48e0 2696 c23f
000001c0: 4c1f d9de 955e aa3f 3a60 c863 c7c9 cf3f
000001d0: 1172 9d4f 0869 c13f 205f b362 bf4b babf
000001e0: 1e3e d979 df03 d23f e6f8 5c53 2c59 ccbf
000001f0: 8028 98ad 6d1d bb3f fb46 9224 2eb1 d63f
00000200: 6fb6 0921 a204 a73f a8c5 2e61 ce48 d43f
00000210: cadb a0cd 9fe9 8ebf c208 beec be96 9dbf
00000220: 6a0f 81ef de06 b9bf 048a 3cb0 bfd7 a13f
00000230: 8361 f84a 5880 df3f 6e39 e69f f92c dc3f
00000240: c6d5 1d29 350a c43f 4d78 c8f0 a18c c03f
00000250: 64bc fbff fe1d 913f 47fa 0e86 552c d23f
00000260: 885f 52bc 1d32 da3f baf1 5c89 c065 b13f
00000270: 82fb 1ec0 3c17 bd3f 659b ccb4 7c44 d73f
00000280: 544d 3b77 bb61 c63f e8ed e57f d5af bc3f
00000290: 2b3f d238 b942 b73f 97df 4485 7d77 dd3f
000002a0: e089 a23e b477 d03f e156 f349 29e6 d03f
000002b0: 669c e9fb 3328 aebf f2da 3887 77e1 b9bf
000002c0: 9c5e f990 8a65 cc3f e086 900f cb50 d63f
000002d0: ea8a e163 66fc cd3f b865 3c9d 7888 8abf
000002e0: b822 ecb5 d36d be3f b8d6 cc5a f648 d83f
000002f0: 1555 323d dc52 c5bf 434c f407 13dc a6bf
00000300: 0778 c38c 2aef c4bf 9c1b 44eb 3635 cc3f
00000310: 8f84 d8af 88ae dd3f d2a2 d263 0957 d13f
00000320: dfb6 d5e3 29fe ba3f c0f2 7ffc b66a a63f
00000330: 6133 8284 cf59 b0bf 0258 f000 ff9f a1bf
00000340: 3d1a 0fff 8fce b93f 930d f701 0466 d63f
00000350: df94 64b5 cbde 80bf e0d7 f1a4 f154 d63f
00000360: 8111 8c3f 9943 b0bf 1bb4 b18a c22a cabf
00000370: 06c2 15ad 9cd5 a2bf 097e 9ad9 270b ae3f
00000380: 5b48 24c9 83f3 d33f 3fbe 7e04 d60d bf3f
00000390: 3ed2 6891 a2a2 d23f c87c 83ba 1741 de3f
000003a0: 1ab6 198b 221e b03f 28a8 88a6 d88e d73f
000003b0: 496a e995 37dd da3f 966e 6be0 1ebf e23f
000003c0: e19a 7725 8c23 cc3f 0e60 480c 6382 b4bf
000003d0: ceb1 3a3d f0e9 93bf ceb3 9b65 008f bf3f
000003e0: 1ff4 a20b c84e a63f 21f8 16a4 32d7 b3bf
000003f0: 651f 3475 e31a c03f 6a93 6aed a4d2 cbbf
00000400: 02a5 2f87 f7c5 d03f d581 2c89 d681 c73f
00000410: 2698 f55d fcf3 e83f c2e4 8b00 bd3c db3f
00000420: 1e24 eefc dd35 d53f 8700 fb32 8df9 e73f
00000430: e296 60b4 f534 e63f 1cb1 5c2d 5f39 d23f
00000440: 0a38 8536 3f0e b03f ea7d 7eb7 fc5f d63f
00000450: 3459 ef41 0a07 d63f d781 ea71 4b7c d33f
00000460: 7546 7e47 6f9b c33f d95d b7b9 6555 da3f
00000470: ef5d 2f41 119a e03f 50f5 8884 2777 ca3f
00000480: 1b9d 89e2 097b d43f 5a57 527d beab c93f
00000490: c9f0 8d55 6900 e03f b4a2 2b73 9171 e83f
000004a0: 1072 da75 3c01 d03f 1c83 6d8f ad98 da3f
000004b0: ec94 e284 9008 e23f 3aa3 63a2 2978 bc3f
000004c0: 1a95 57b0 3b82 cd3f 1e7d 3b2b 909b d03f
000004d0: 1f49 55f9 2f0b d93f ee5a ffbe 8c3a 943f
000004e0: e9ec 3a42 64f3 d13f ba2c 4ac8 26ec cd3f
000004f0: b131 f1d7 a2f7 85bf 0d31 ecad 3eec c23f
00000500: 42d6 9749 c47b ce3f e5b8 97e4 f0dc 973f
00000510: 6fe0 67c3 ce65 d93f ebff 305e 1205 5fbf
00000520: 857a 9467 db7d b0bf 471d e0b3 9471 c63f
00000530: 2c74 b8fc ce02 7d3f 0c36 1747 f560 76bf
00000540: 3314 dc2d 3cc5 df3f ce6b d258 849d db3f
00000550: 690b b6c6 0480 bc3f c875 2c99 e595 c73f
00000560: cda5 a75b 9d23 92bf 71c1 22e6 9ddf d23f
00000570: 94d7 31ff 5974 cf3f fd80 7fac 36bf b13f
00000580: 4f03 585e b94a d83f 5b97 57be 2edb 96bf
00000590: 4e98 bc13 85f8 c1bf 9402 4372 034c c8bf
000005a0: a427 56fe f61d b23f 1bf4 4648 ff8b b93f
000005b0: d3b4 1011 7e86 b83f d810 34e0 f058 d33f
000005c0: 12a4 0485 e49a d13f 5f53 952e be66 c13f
000005d0: c80f 34d9 b691 c33f 17c4 123f 28dd b4bf
000005e0: cf93 049b aa84 bbbf 9c9b 5ca7 9ea3 b33f
000005f0: 939e d503 cdad d43f dda6 b7c2 37b5 d33f
00000600: 7f94 3c8d 24a4 9dbf 7d01 f94e 9bb1 aabf
00000610: 3270 a171 d98e c93f 9011 c18b 0119 b13f
00000620: 4f6c 6c83 48f5 973f a94f 4194 095a b43f
00000630: 319e 767b c1e5 b83f c843 f29d c63f 8fbf
00000640: 1053 4a3a 3fb0 be3f d6b7 8e95 7ed5 c3bf
00000650: a700 8dc2 8a34 b93f 539c 7c91 d77d b13f
00000660: 7c68 b1dc 7ec6 983f 5d54 ff35 b579 c13f
00000670: 16af 13f8 28af bb3f b15b 2bea a0d0 c23f
00000680: 64a7 e3d1 a3c3 cfbf da5d 09e1 9acd cbbf
00000690: 1f0e ffe1 c287 cabf 0f4d 27ce 3357 d3bf
000006a0: 545e b372 a7e3 873f 35f9 9420 4114 b2bf
000006b0: d416 97d4 62f3 d13f 987e 5899 e634 b93f
000006c0: 077e 22eb 04e4 c03f ecf5 d425 6733 a93f
000006d0: 6319 3cfd d5dd c33f 7275 3200 a1d8 d03f
000006e0: dabf 0118 7c93 cdbf a7c2 11ac ce38 a63f
000006f0: 532f 0079 e46f ac3f 3073 ab5c 7cf2 c23f
00000700: 09af c979 9a17 9c3f b610 7a90 7cfc c13f
00000710: e9f4 cffb 0c9b a1bf f4e5 fa9b 4b53 c53f
00000720: 17e2 cc17 3835 b9bf deb9 e2de 4ec9 c13f
00000730: 199d 4922 39a9 c83f 9dcc ea9e c746 ba3f
00000740: 6fdd a9e8 f47c a83f 3a17 519d b047 aabf
00000750: d7ea 9787 ec77 d33f 96bb 70da 3e17 c4bf
00000760: 5002 9a22 d9ff 853f c6aa b32c 6c72 963f
00000770: d793 cb7a 87b0 d43f f5f7 2ecf 04d9 b43f
00000780: f80c e335 205b da3f a96d 68bc f5c0 c43f
00000790: 5757 c1f2 2a2a ca3f b2cf 4848 5bcf d13f
000007a0: f24a 8f44 8f52 a7bf 8bcb 276a e1bd c33f
000007b0: 6a91 8c09 d99c df3f c2cc e9ec 1fc7 c33f
000007c0: 6235 8d6d 25e2 863f 9721 1e26 f723 a13f
000007d0: cfa0 1b3b 0f41 ab3f 1f57 a79e 47cc b1bf
000007e0: 06c8 9b8a e2b8 ce3f 10d5 948e 0ece d43f
000007f0: 31f1 d8a4 3807 b43f 716a 4465 9729 c13f

rnn.weight_hh_l0 f8 [80, 20]
-0.22299800715514687 -0.2013182580892999 0.17623050532499707 -0.10923663750996104 0.09589580037975516 0.08939534861980314 -0.15770763264671184 -0.06813631716830364
0.08552934904101504 0.005289938937674999 0.06040254670589908 0.22066004671505743 -0.2211789780172094 -0.22200677279701342 -0.15520143808387504 0.1938512819988892
0.1519950105920112 -0.191580117354618 -0.10342268625520226 0.15886486610058195 0.11505306197660993 -0.3384360764099864 -0.16164157567497114 -0.003950959737540491
0.08151392823119302 -0.27478018982001173 0.00951919241988371 -0.23232908448419237 0.042411033571747414 -0.34781516055300954 0.3544334619411692 0.22039138406661157
0.0802745449820075 0.09252527998595803 0.2515973787023479 -0.18757634006271745 0.24527992488478906 -0.4510901060370804 0.03448321882970279 -0.05719854773163285
-0.12668901691347692 -0.09900106911626273 0.10554998888059235 0.014588778085868417 0.178893924001337 -0.09288830932408945 -0.057601767875694355 -0.09274169451698347
-0.023289866826159696 -0.18895094680802724 0.18948907581066884 0.2567198247947808 0.1343314752568485 -0.08149256355130921 0.2744199948297781 0.03457968649715428
0.20795966878146982 -0.04152407622729602 -0.004916380367320147 -0.032773187342054186 0.17236972322086286 -0.355724629465782 0.18374579607610772 -0.07211111105605186
0.12268543094105842 0.08262161747285109 0.15148211208816645 -0.17204862985939243 -0.1106197666343168 -0.35673932305283856 0.2126724860341169 0.13143541927167496
0.19359708487181024 -0.08541848837143828 -0.061302851482621275 0.0643528494132461 -0.054531843026883665 -0.10523384140239227 -0.19566938077655915 0.006640296014103467
-0.09924294968192329 -0.0488216732808723 0.0030102475472994646 0.0034602607823446337 -0.13195052489969775 -0.2610369562560053 0.06136418979116391 0.026356753056496818
0.22732259820570705 -0.27428366189529213 0.3716038855247439 -0.03155517215925061 -0.09049431344905826 0.10783754567420858 0.2638322137399463 0.05332744557346284
-0.12151208230727831 -0.28356707306448203 -0.1269404848843348 0.05777687449092511 0.06936961178112243 0.18165516274480276 -0.11493153888414925 -0.06980867312908696
-0.02959024290452318 -0.0727866359337519 0.06154357256311076 0.10502860730908552 0.06167378039917172 0.25741702857626564 0.07219570868347625 0.005816864386044461
-0.10329181997678182 0.0886585826173379 0.42964569369773825 0.019861751653623985 -0.0038069601348796563 -0.2452195143446027 0.32736039789704763 -0.03708325840890167
0.2075221707567325 -0.17860032139763413 -0.006633179596301907 0.08996334803652185 0.06677199775307174 0.08564041294274326 -0.07949737184153825 0.18241212600297607
0.23050004815064545 0.07871179761938175 -0.017790631056587736 0.1772036300778598 0.11192480828230886 0.09312547486306824 0.20542661717773159 0.15659587255450885
0.09384883400936214 -0.07584039268807728 0.14113417393348088 -0.17689841760428832 0.10287700026277224 0.08902352515083448 -0.03678446337224938 0.06865265702184394
0.04734819416616788 -0.1527688879409373 0.03497584715361944 -0.10797191773523784 0.1652902015820894 -0.053951387228937206 0.18424579852005638 0.1047727876687314
-0.06155855891555469 0.07779890550895209 0.2840879171060898 0.05041207477976805 0.06703226083030644 -0.012602034184932342 -0.005136774403139924 0.14112450748928074
0.12809050556528512 -0.31959675592786513 -0.006377875592605383 -0.10631716126982525 0.11006929785555893 0.09406278001815573 -0.10863644979428928 -0.029231248787088063
-0.17308881854709704 -0.12922865596844701 0.10074445765570031 -0.15782157373612232 0.08999805401267655 0.190541521399604 0.01672337098554209 -0.1160378548459837
0.028952751801671135 0.12262205547667768 -0.04137296970324993 0.11963650997254988 0.06803306005998838 0.011709942778671753 -0.008442810506969555 -0.1428278394534193
-0.1965090751056182 0.2796156019438135 -0.15849633887524023 -0.12350516238498184 0.09446636513187871 -0.15642166764126045 -0.20692500173514025 0.09634009119254547
0.19040183833132157 -0.16911163866648118 -0.19390406876920657 0.052761779451158286 -0.332184642479492 0.17734328185368098 -0.15509310700613252 -0.059346085473116025
-0.3423116842728965 0.08010157993493752 -0.4190277925047533 0.03388805481420271 0.38646227574053976 0.04649010780203258 0.3189655905626689 -0.03736870555375093
0.21652052101487612 -0.1520399798936711 0.1410708114529288 0.40968010537442046 -0.35254786517585585 -0.14542040233208595 -0.010192537550788042 -0.10186133739231819
-0.38787725126274053 -0.11903314921973128 0.4089264635840224 -0.001560706397389416 0.1294715308222184 -0.197593480501452 -0.030549909729741566 -0.10812324646234515
0.22081525491383042 -0.19828244108134635 0.18302158269434307 -0.09602539475629265 -0.10751093850121426 -0.06232886706920343 -0.016929575065143563 -0.1474269524954098
0.04568910365514002 0.09461748360517554 0.1409053167449169 0.023229747654871444 -0.1088256165592228 0.08076186070005152 0.02985494748632147 -0.05520525006540676
-0.027804778218216007 0.008292347043060129 0.15637007679040063 0.21730872976708018 0.12497815922388299 -0.2800767231338056 -0.10803472077834717 0.15020113068973814
-0.10269063090580417 -0.12082091199612072 0.17146471291185553 -0.036200586546721154 -0.018620899267597475 -0.01613477395559679 0.29410744832328345 -0.08756834001289128
00000000: d5fa e6dd 328b ccbf c365 4af3 cbc4 c9bf
00000010: 58d6 76a0 b88e c63f a85a a1a9 eef6 bbbf
00000020: 4d6d 748e a08c b83f 1090 bc12 9de2 b63f
00000030: f40a 4682 c32f c4bf 2362 e8b5 6171 b1bf
00000040: 47b5 fa5c 40e5 b53f ce2d c32b e7aa 753f
00000050: 82d6 6425 15ed ae3f 8766 16a2 963e cc3f
00000060: 5bc4 92be 974f ccbf a0ab 53ca b76a ccbf
00000070: 8663 6e06 a4dd c3bf 1388 3c6a 1ed0 c83f
00000080: 22ed d28f 9274 c33f ec0b 4d81 b285 c8bf
00000090: 8a6c 21bf e879 babf 6555 3116 af55 c43f
000000a0: f183 7e12 1e74 bd3f aeea fdc9 efa8 d5bf
000000b0: 1f55 99d0 abb0 c4bf 30cf c4ad e12e 70bf
000000c0: 24e5 ebc7 18de b43f 5c66 37a6 ff95 d1bf
000000d0: 2a98 0561 cc7e 833f 0a76 e29d f5bc cdbf
000000e0: e844 5c24 e6b6 a53f dc33 e884 9a42 d6bf
000000f0: f24d e9af 09af d63f 5e71 71ed c835 cc3f
00000100: 1225 6661 df8c b43f 76ca 979b bcaf b73f
00000110: 5e4c 52e4 2b1a d03f be4f 0963 8002 c8bf
00000120: ba6c df23 5565 cf3f a39e 3e09 a9de dcbf
00000130: 18ce 44d2 c8a7 a13f 67a9 c5c7 2049 adbf
00000140: 69f0 3380 5837 c0bf 1996 1f52 2258 b9bf
00000150: bbd6 55f6 5205 bb3f eea5 23a6 b8e0 8d3f
00000160: 19f9 8400 ffe5 c63f 4a4a ba3a 87c7 b7bf
00000170: 5d8f 6f9a fa7d adbf b212 ed70 ebbd b7bf
00000180: 52de 6281 4cd9 97bf ef5a 8b6c 8b2f c8bf
00000190: df2d c793 2d41 c83f a79e eefc 186e d03f
000001a0: bf9a 8616 c631 c13f 6af0 5157 b2dc b4bf
000001b0: 8864 cae1 1890 d13f 93f0 38bd 6db4 a13f
000001c0: fad5 2624 6c9e ca3f 4e23 c9ca a442 a5bf
000001d0: a302 47ce 3223 74bf 56bd a3af a5c7 a0bf
000001e0: 4cef 060a 3610 c63f eefb 7b3c 31c4 d6bf
000001f0: af51 7674 fb84 c73f baf9 a9af df75 b2bf
00000200: 3767 96f9 4f68 bf3f 7d0f fdb8 b026 b53f
00000210: d180 ac0e c463 c33f 61aa 4883 b005 c6bf
00000220: 864c fcb7 9351 bcbf 3b62 6d2b d1d4 d6bf
00000230: 2f45 231e da38 cb3f 0269 a735 e0d2 c03f
00000240: d70b 100e cac7 c83f 0872 076e fcdd b5bf
00000250: 41ef 895c 1663 afbf cc61 a2a7 6d79 b03f
00000260: 753a c804 99eb abbf 3b77 41e3 9af0 babf
00000270: 3cc7 a1bb b10b c9bf 2a1a 76e3 da32 7b3f
00000280: 2a10 3e67 fc67 b9bf 9399 2784 27ff a8bf
00000290: a3ad 9758 f2a8 683f 1168 aa5c b158 6c3f
000002a0: a12e 913a c1e3 c0bf e8ae 8a59 d4b4 d0bf
000002b0: 46e0 9888 206b af3f d027 a0c1 43fd 9a3f
000002c0: 9ab6 772a e818 cd3f b3b6 6a0f dd8d d1bf
000002d0: a44c d9a9 5bc8 d73f 9d23 e3e0 ff27 a0bf
000002e0: 7ad8 bca4 a22a b7bf 2a9e f3cb 3d9b bb3f
000002f0: 0d3d 6982 a0e2 d03f 753a 6f25 bc4d ab3f
00000300: 7a20 9473 6a1b bfbf 7e33 4282 f625 d2bf
00000310: c2ec 8ef7 953f c0bf 48a7 ce34 ee94 ad3f
00000320: afa6 eff5 34c2 b13f e4b9 91f3 7940 c73f
00000330: c44f c940 276c bdbf 8d0b 1130 fbde b1bf
00000340: 44f5 3896 e74c 9ebf d0db eb1c 25a2 b2bf
00000350: 5608 e09e a382 af3f 7b75 89a1 27e3 ba3f
00000360: f295 abab b493 af3f a9c9 ca45 8579 d03f
00000370: c802 b5ff 6a7b b23f 8b6e daa4 6cd3 773f
00000380: ef9d be2c 5571 babf f5e6 d930 54b2 b63f
00000390: 2123 d3a6 507f db3f 94a2 2c97 a356 943f
000003a0: b5f4 d828 c62f 6fbf b6bc 3961 5a63 cfbf
000003b0: a44b be06 79f3 d43f acd1 30ac 93fc a2bf
000003c0: 072c 4c24 1690 ca3f 5f9d ba15 60dc c6bf
000003d0: d82a f496 642b 7bbf a1d0 a785 d607 b73f
000003e0: d855 a33a f817 b13f 9f15 ceb4 87ec b53f
000003f0: 5767 2d94 f059 b4bf 78ce c9d1 4759 c73f
00000400: 0248 448c 0681 cd3f 59a9 95d4 7426 b43f
00000410: a0c3 400a b537 92bf a55c f5c9 9bae c63f
00000420: 86ff 2eaf 1aa7 bc3f ea1a f634 12d7 b73f
00000430: 6ccd 405d 6b4b ca3f 9eb4 a763 550b c43f
00000440: 6e83 d628 7a06 b83f 8fa3 4fa6 466a b3bf
00000450: 1a36 b242 af10 c23f 7a8b 297b 9ba4 c6bf
00000460: f8a1 a3a7 2556 ba3f a2f3 18e9 3eca b63f
00000470: bf93 5ec6 69d5 a2bf 2d3c b174 3893 b13f
00000480: 72cb efc2 053e a83f 12bc c650 ee8d c3bf
00000490: fe70 59af 5ae8 a13f f02a 8f2f 0ca4 bbbf
000004a0: 2079 12b5 3a28 c53f 5eb9 7127 849f abbf
000004b0: 8bd6 88c7 5d95 c73f ad46 8cb0 63d2 ba3f
000004c0: 9a92 a97a 9a84 afbf d156 d30a a1ea b33f
000004d0: da33 4a16 7f2e d23f 1f56 0189 9ccf a93f
000004e0: 2009 0bb8 0629 b13f c6b5 7f65 18cf 89bf
000004f0: 443b 1861 4c0a 75bf 0c50 2a2c 5e10 c23f
00000500: 645e 2a0a 4565 c03f 438b a7f3 4574 d4bf
00000510: fc40 69f1 af1f 7abf 1f4f a8fa 9937 bbbf
00000520: b553 9562 802d bc3f f1e5 f293 7f14 b83f
00000530: ed1f 052f 99cf bbbf 0444 3fe6 cbee 9dbf
00000540: 8d45 7b3f c627 c6bf 0096 8b89 908a c0bf
00000550: ea6d e286 63ca b93f 0e63 e650 7f33 c4bf
00000560: 7e26 b0ca 1c0a b73f 407f 7821 aa63 c83f
00000570: 7bdc d86d ee1f 913f be57 a927 a8b4 bdbf
00000580: 2533 7848 caa5 9d3f 9e66 0ab6 2864 bf3f
00000590: e7b1 a07f d62e a5bf a45b bd91 7fa0 be3f
000005a0: e423 0158 9d6a b13f f8ed 2dea 61fb 873f
000005b0: e62d 1cd8 764a 81bf 4194 b4c1 2e48 c2bf
000005c0: 3711 7999 3527 c9bf be33 73d6 38e5 d13f
000005d0: 3ea0 00a8 9b49 c4bf 8da6 54c9 089e bfbf
000005e0: e33b d09c f22e b83f e1d6 730d a005 c4bf
000005f0: 87ad 96b9 847c cabf 3634 f784 bea9 b83f
00000600: 6a9b 5d62 165f c83f 5506 b93e 73a5 c5bf
00000610: ee68 f638 d9d1 c8bf 1867 718a 9703 ab3f
00000620: 26b4 eb5f 8342 d5bf 140a dd45 2fb3 c63f
00000630: 3793 3647 17da c3bf de5b 8130 9c62 aebf
00000640: be68 3f44 6fe8 d5bf 4ab1 2d82 8981 b43f
00000650: 4212 3bf2 59d1 dabf 49da 4d6e c659 a13f
00000660: e35f dc44 ccbb d83f 04ca 3129 8dcd a73f
00000670: f705 01a7 ee69 d43f cf92 7eb0 fd21 a3bf
00000680: aefc 55c6 f1b6 cb3f d7f5 a9ca 0b76 c3bf
00000690: 3d25 cebc 9b0e c23f 06eb 99e7 3238 da3f
000006a0: 611d cdeb 2490 d6bf 0fff 17c0 229d c2bf
000006b0: 6814 8d3b d3df 84bf 09ab d3a8 9513 babf
000006c0: 4a4b 421b fbd2 d8bf e7e3 09db f478 bebf
000006d0: e8fc e3e6 d92b da3f e556 debb 1392 59bf
000006e0: 747e 52eb 8592 c03f d509 5440 be4a c9bf
000006f0: 9a6e bdbc 7948 9fbf 1f3d 7e0f f7ad bbbf
00000700: fe09 289d ac43 cc3f fe5f e8ab 5161 c9bf
00000710: cf32 1150 406d c73f 0653 10ca 1e95 b8bf
00000720: 0e32 d33c d685 bbbf 3863 51bb 91e9 afbf
00000730: 59ba f58c fc55 91bf 3b24 c2e9 e2de c2bf
00000740: 92fa f6eb 8f64 a73f a9cb b6f5 d938 b83f
00000750: 8c3f a077 2f09 c23f 6c55 e3f9 89c9 973f
00000760: 04c2 16e0 fedb bbbf 3f88 782e cfac b43f
00000770: c668 4f9c 4b92 9e3f 9e64 32cf dc43 acbf
00000780: 39a5 7a14 db78 9cbf 3730 dbfa 93fb 803f
00000790: c1a2 f146 ef03 c43f 9111 bebf c5d0 cb3f
000007a0: 1fb3 9492 91fe bf3f 32c1 8eeb c6ec d1bf
000007b0: 7e53 93d8 29a8 bbbf 1f3c 1168 ca39 c33f
000007c0: cd95 58e5 ee49 babf 4c3c b289 1eee bebf
000007d0: eded 2f43 8ef2 c53f d9dc a01e e288 a2bf
000007e0: e279 8165 5b11 93bf 39dd de59 a285 90bf
000007f0: abbe 030c a8d2 d23f 6137 85f4 e06a b6bf

rnn.bias_ih_l0 f8 [80]
0.1805368320742994 0.3324741241756281 0.3179083467752966 0.051844350835626773 0.123029118498695 0.2273836894342253 -0.0005854702136495876 0.2736840613070711
0.5019837251126882 0.6675245542098879 0.3657918904608305 -0.09109748876941538 0.15963552444184648 0.25753198423396617 -0.1160019043155959 0.007377749504963668
0.04264667194521201 0.06512999541457799 -0.10684927039920375 -0.20202624723660972 0.053805053926518936 -0.04055934276023921 0.06988977894072275 -0.15976552959881904
-0.16816601908980774 0.2723320196579087 0.18679715719417894 0.14499510723058265 -0.17574557544480468 0.02366990991841951 -0.09511939508400222 0.16157557257401628
-0.09616095016655014 -0.0433398143514325 -0.21677350882130986 0.09256591012563192 0.05415153956135501 -0.14715186497655316 -0.023154150075503598 0.16326230788914597
-0.18051161050321302 0.17570351906175044 -0.2559040888843825 -0.18436115659009367 -0.004788076671666559 -0.11497174925096544 0.23009240415057078 -0.1918866803557355
-0.036064393777458376 -0.011930061915936215 -0.08344940826214942 -0.058000586955146295 -0.032386998221304 -0.15440073695466286 0.09000089285901589 0.18654303904062963
-0.08365326854977854 0.039045784748777256 0.1562000192663281 -0.15139233561633997 -0.01989690078555641 0.19221552603105133 0.08099119626812018 0.06707118356404686
0.0273113822314473 0.18179967791844884 -0.09429065751942596 0.10894471574313386 0.2767173265464059 0.5313532774634777 0.4278462248188595 0.2419875614185334
0.12346527112534095 0.0722691620782118 -0.047560747935464456 -0.025161660625625516 0.07351429770077889 0.09969607151309395 -0.09143527294998251 0.17084805305358652
00000000: 85c4 bdb6 d41b c73f ab6f 868c 4147 d53f
00000010: f19e 2140 9c58 d43f 408a a4be 578b aa3f
00000020: b658 6818 d67e bf3f cdc4 e1a2 e81a cd3f
00000030: 76e6 cfb5 472f 43bf 6605 3027 0a84 d13f
00000040: c876 4f2c 4010 e03f 6778 3374 5c5c e53f
00000050: 46f6 aa63 2269 d73f 712a 033f 2a52 b7bf
00000060: 0cf7 60d6 ef6e c43f 2a5e 7d6e 677b d03f
00000070: 1a28 4f01 4db2 bdbf 3d6b 788d 2138 7e3f
00000080: 136b 93da c8d5 a53f 7953 4b00 5cac b03f
00000090: 764e f749 795a bbbf fa4c 68fe fedb c9bf
000000a0: 04a5 f205 568c ab3f b1ab 67b5 31c4 a4bf
000000b0: d504 e0ea 4be4 b13f 9bd8 5366 3273 c4bf
000000c0: af05 25d0 7686 c5bf f165 8547 e36d d13f
000000d0: 2240 9120 f8e8 c73f a953 d11d 338f c23f
000000e0: 9edf 79bd d47e c6bf d4d9 fec3 ec3c 983f
000000f0: 36e1 19a3 be59 b8bf 12d9 0424 82ae c43f
00000100: 411c 1e08 019e b8bf 3c1b 82da a230 a6bf
00000110: b06a 83fd 3bbf cbbf eccc b644 66b2 b73f
00000120: 235d e326 c0b9 ab3f 7352 cf4f dfd5 c2bf
00000130: a325 5db5 b8b5 97bf a8d4 8680 c7e5 c43f
00000140: 726d d423 011b c7bf 41c7 14f2 737d c63f
00000150: 4df3 2a8b bb60 d0bf 1c85 1a79 2599 c7bf
00000160: e1e2 728b a99c 73bf e12e ffde c96e bdbf
00000170: 613e 71fb aa73 cd3f df3b 5524 be8f c8bf
00000180: 0c04 a63f 0877 a2bf a446 25ce c96e 88bf
00000190: 8842 5bbf f05c b5bf 5d08 3ec0 40b2 adbf
000001a0: 342b 5a54 0795 a0bf ed6a d941 67c3 c3bf
000001b0: beb5 706b 4c0a b73f 1cec fc6d a4e0 c73f
000001c0: 2bf3 9ff4 4c6a b5bf bbd6 1521 cffd a33f
000001d0: dc14 31bb 5cfe c33f 8e2a 2bf5 d260 c3bf
000001e0: e5b2 a968 da5f 94bf 551c 0bb3 849a c83f
000001f0: 4c49 3ccb d6bb b43f 395e e9bb 932b b13f
00000200: d071 f8d5 83f7 9b3f 13a2 8a3b 3645 c73f
00000210: dd40 5dba 6e23 b8bf a453 3007 cde3 bb3f
00000220: 2637 f096 bcb5 d13f 647f aa96 d800 e13f
00000230: a419 d421 d561 db3f 106b 2acb 72f9 ce3f
00000240: 2cd4 ac85 6b9b bf3f 4a9f a257 3b80 b23f
00000250: 7a88 e9e1 e159 a8bf 7d1d 0076 fac3 99bf
00000260: f8ca 6940 d5d1 b23f 043c b086 ae85 b93f
00000270: cd60 0553 4d68 b7bf 98a7 3958 59de c53f

rnn.bias_hh_l0 f8 [80]
0.24054124520219858 0.09712145898969919 0.32381060731721273 -0.09645935163801336 0.1925733444298625 0.07801084354608727 0.0010881835081598399 0.1120698220912201
0.36042209772468736 0.7545307654907096 0.6649125476068077 0.24453671299564467 -0.07381149084364552 0.1199102834702629 -0.213629395074492 0.1679360179328129
0.10916129809057502 0.14590741700824403 -0.051751429672828454 0.11291147842657552 -0.14076867630381273 -0.12168698634544425 -0.05314088359589845 -0.22132151123486649
-0.07109614468394672 0.03076670274239662 -0.16405498955054915 -0.04997550052698599 -0.06801856936703803 -0.18923229328382785 -0.22950852734527866 0.05017842539536626
0.07655571957174252 0.01581109006560549 -0.04277898255425846 0.05056648066129142 -0.13028922224322576 -0.03954113265958249 0.05289130347292762 -0.11993474488766782
-0.2675153481912781 -0.12832622878199185 0.08569816204926489 0.09602411412466574 0.26102886518567114 0.1195072310518454 0.010790778064335812 -0.09908296369618959
0.06161051247635645 0.2373451754059166 -0.17516975089825737 0.20088743415634244 -0.1603497290462509 0.04001751455977179 -0.04051453353830745 0.00880408938414332
-0.0448824066260841 0.10019094137071075 0.1902290560266583 -0.21919717880367212 -0.013882643116107526 0.07556735865930202 -0.05478338635631521 0.2363650640266935
0.13088789337608533 0.4023025313120035 0.32876369488326257 -0.07755108010285172 0.3518359576709024 0.5247389053292689 0.5984491871935471 0.27037933988761814
0.06152284277489239 -0.08500493512599659 -0.006223138644387777 0.2589325463631862 0.2415511758097562 0.21686096645156241 0.1160937205373755 -0.07314844791534703
00000000: 85c4 bd36 0eca ce3f 83be 19b2 f3dc b83f
00000010: f59e 2120 50b9 d43f caba ad60 8fb1 b8bf
00000020: 572c 344c 3ea6 c83f 8b89 c3c5 84f8 b33f
00000030: 7f0d 1825 2cd4 513f 8a15 c09c 9bb0 bc3f
00000040: 8aed 9ed8 2711 d73f 5e78 33b4 1d25 e83f
00000050: 257b d5ad f646 e53f ba6a 7ea0 fa4c cf3f
00000060: ec11 3e53 4fe5 b2bf 6978 f5b9 70b2 be3f
00000070: 1594 a740 3558 cbbf 69c3 6b6c ed7e c53f
00000080: 95b5 49ad fef1 bb3f bba9 2520 18ad c23f
00000090: 159d eed3 297f aabf 1566 2f43 c4e7 bc3f
000000a0: c856 833e b504 c2bf d6d5 b3da e026 bfbf
000000b0: 65f6 3f2a 4835 abbf 9ed8 5366 4354 ccbf
000000c0: 550b 4a60 5b33 b2bf 0f5f 5678 4e81 9f3f
000000d0: debf 6eff c0ff c4bf 84b1 ba88 6396 a9bf
000000e0: 2bbf f33a aa69 b1bf bc24 8087 c338 c8bf
000000f0: a2f0 8c11 8960 cdbf 3764 1390 fcb0 a93f
00000100: bde3 e1d7 2799 b33f 8fc9 fb4a c830 903f
00000110: ebaa 0d76 20e7 a5bf ae99 6d89 d9e3 a93f
00000120: ba28 4736 51ad c0bf e249 3d3f bc3e a4bf
00000130: 156d 51a5 9114 ab3f c556 f21e 0bb4 bebf
00000140: c236 eab1 f81e d1bf bc38 eb6d fe6c c0bf
00000150: dc32 5493 50f0 b53f aaf5 ca4d 0995 b83f
00000160: 7034 d269 b2b4 d03f 2bd1 00a1 0698 be3f
00000170: 3ee6 13b7 7919 863f bd77 aa48 805d b9bf
00000180: 06fc 59c0 698b af3f 78ab 1da3 5361 ce3f
00000190: 34a1 ad5f f66b c6bf f77d f0ef adb6 c93f
000001a0: bc8a 1605 5786 c4bf 3454 9af8 2c7d a43f
000001b0: 5d94 1e29 52be a4bf 33c2 cedf e007 823f
000001c0: 6ee6 3fa9 d3fa a6bf 82eb 8a10 1da6 b93f
000001d0: dc14 31fb 6c59 c83f 8e2a 2b35 a70e ccbf
000001e0: b865 53d1 806e 8cbf d338 16e6 6158 b33f
000001f0: 636d 8769 910c acbf 22af f4dd 3541 ce3f
00000200: 390e bf3a efc0 c03f 0951 c51d 53bf d93f
00000210: e3af 68e1 760a d53f 68ac cf38 63da b3bf
00000220: 2737 f0f6 7a84 d63f 637f aa3e a9ca e03f
00000230: d60c eae8 7e26 e33f 7735 9525 e54d d13f
00000240: 5fa8 590b ec7f af3f b760 5d28 e2c2 b5bf
00000250: ba43 4c0f 6f7d 79bf 2cfe 9fd0 5992 d03f
00000260: 5ae5 3420 26eb ce3f f11d 58a3 19c2 cb3f
00000270: 2d9f fa6c 51b8 bd3f f0b0 8c4f dbb9 b2bf

V.weight f8 [1, 20]
-0.14031356577433973 0.25042621285204747 -0.22141896530628674 0.19381046801505483 0.19943516168797354 -0.3670469969680238 0.22823352784630913 -0.16401045394316016
0.21076039494389875 -0.5792677447125155 0.36230916304443755 0.2960550250451076 -0.31415011310859736 -0.14478685218826143 -0.05268631293680496 -0.1774939595049004
0.0725930504558488 -0.3393749516547027 0.2373298789356575 0.14452883839487304
00000000: b0cc 1780 cbf5 c1bf f6ae 90aa fb06 d03f
00000010: 4e32 5ae7 7457 ccbf 73a1 df0a c8ce c83f
00000020: 22a8 8f64 1787 c93f aea6 04b0 b27d d7bf
00000030: 5cad f998 c136 cd3f 90a9 f167 4bfe c4bf
00000040: 48bd c955 32fa ca3f b15f 6582 5c89 e2bf
00000050: 9549 94c5 1230 d73f 16a7 98c6 90f2 d23f
00000060: 1983 7513 091b d4bf 0a0a 8525 6088 c2bf
00000070: 0553 054e b3f9 aabf fbd1 a73f 1fb8 c6bf
00000080: 84ef 9f49 7595 b23f dd10 9cb7 51b8 d5bf
00000090: 8036 3252 d360 ce3f 870f 1ec5 eb7f c23f

V.bias f8 [1]
0.13976566270221188
00000000: 3f73 345b d7e3 c13f

best_model_score f8 []
0.002044633973938981
00000000: 4d89 9c81 e8bf 603f

exp_avg f8 [80, 14]
-3.287699596259754e-06 -5.731281993687143e-07 3.9638603994961753e-07 3.5551796062532335e-07 -4.4316714078302687e-07 -7.750965499821589e-07 8.629235570600659e-07 6.02589799300455e-08
-5.103823353829665e-07 -1.2977987737660886e-06 -5.568668966843062e-07 -9.11487341688685e-07 -1.0078887853957367e-07 1.1338488710690336e-07 1.5466260352987242e-06 1.0489797189034377e-07
1.0894356318430308e-06 2.5761990864130923e-06 -2.8597305950187125e-07 -2.285770296225453e-06 -1.1243955656457202e-07 1.4890683902015817e-06 2.6995142898390338e-06 -8.275131218210898e-07
1.7136689474280313e-06 -5.895434239718416e-07 4.0613248091384616e-07 7.165833367337225e-08 -2.0273832427696076e-06 -3.8455254061994324e-07 -6.27735965880334e-08 4.337633045065605e-07
-1.0140124573129882e-07 -1.550179689764429e-06 -1.2856703063658803e-08 3.246632109870785e-07 1.6533060345420318e-07 -8.468341775786655e-07 5.890706518860161e-07 1.9644310056126992e-07
9.687285330738376e-08 -1.3464003831828094e-07 -2.0390575154239652e-06 -3.285343255174601e-07 -5.575615849872922e-07 -6.401057238950772e-07 2.94285764927804e-07 -1.0677638874644825e-06
4.0282029521640825e-07 -2.623356674483717e-07 -7.819530544132236e-07 -4.293242817812648e-07 -3.497411331028293e-08 -4.777527320494675e-07 -4.22837025704645e-07 -2.1837756341236613e-07
-2.2774033529567295e-06 -4.1703147690538926e-07 1.0770835582307959e-07 1.055666172077562e-06 -3.740522592378106e-07 -4.0012844273745683e-07 1.1773169172532972e-06 4.146262463013728e-07
3.8116954555232457e-07 -8.986935364740045e-07 5.27138889406556e-07 -7.005387758823769e-07 5.348508165215873e-08 -2.2785371736524077e-07 -1.1519840813613403e-05 -2.0704352949869137e-06
-1.1735854457459719e-06 -1.7639283064603863e-06 -3.5890042619974727e-06 -1.1253956492400293e-06 1.1245238518354496e-06 1.1148883872878277e-06 -1.7848649014741243e-06 -2.8982096302548346e-06
-1.9255945541339754e-06 -1.6231041235803726e-06 -8.823182628816166e-07 -1.5760508868740594e-06 -5.406389252185571e-06 -9.845526495491443e-07 2.699336630302608e-07 -5.538686537787067e-08
-1.5459037744821992e-06 -2.271327605838051e-06 2.1337602163295567e-06 9.583308446157378e-07 -4.168347042794426e-07 -1.4293360256806593e-06 -1.0356736785934079e-06 -1.063274553734831e-06
-4.1167772124357077e-07 -2.1958386052374364e-08 -4.9201256108474176e-06 -9.004514696730065e-07 -2.981499415628758e-07 -5.395633586901903e-07 -1.2218125061905171e-06 -1.6014539984505047e-06
1.269715441730072e-06 7.482368778103958e-07 -3.899245629905072e-07 -6.001969649520295e-07 -6.392847387195911e-07 -1.1893663023254844e-06 -1.5588180717069835e-07 -1.756316752726141e-07
-1.6259277053834285e-06 -1.7513390843324067e-07 -4.6858530462103355e-07 -1.7652856777787265e-07 4.889256653521666e-07 -1.3760760409569235e-07 1.2965978440153493e-07 -6.062081104775496e-07
-3.196820588633142e-07 -4.510830729809771e-07 -2.5417454448574663e-07 2.9102567924257745e-07 -2.160232968482811e-07 -2.442830036238112e-07 -4.564265026953065e-06 -5.75176054722854e-07
-1.3128635685127164e-06 -5.236088972503625e-07 -1.6762046918228255e-06 -2.2372924909057016e-06 -1.0454620763172338e-06 -1.4110030569555904e-06 -1.712529908572745e-06 1.004200914818012e-06
-1.3417737985387922e-06 -1.4387459176053688e-06 -6.440003819184425e-07 -1.310237280882172e-06 8.880252499030155e-07 2.398835667105957e-07 -9.819939798992188e-07 -7.182974644530152e-07
6.84688326701729e-07 1.1540802523349882e-06 -2.086227298002482e-06 -1.4780125086972455e-06 -1.7802818687042744e-06 2.1097567672881632e-06 -3.009168783502648e-07 2.380470960376091e-06
7.841340826450262e-07 -5.88087480689258e-07 -4.453520885713665e-06 -8.004861887264205e-07 -2.6858927294785745e-07 -1.9822698403800882e-07 -2.521154345508499e-07 -2.057782755216959e-06
1.6173768782520573e-06 2.1753263419757852e-07 -5.862126795855767e-07 -1.0845288237972395e-06 -7.992607376548379e-07 -1.0793955014115963e-06 -1.5993589570290216e-07 -4.2455270775672123e-07
-6.9846849426530785e-06 -1.3027987199449438e-06 -1.7366565262250402e-07 -5.111627977700892e-07 -2.6011159370029626e-06 -2.032371201265933e-06 2.460003216178447e-06 4.6484178505483674e-07
-6.737792057326586e-07 -1.8383816975338614e-06 -8.979198417655947e-07 -1.5709183584196646e-06 -6.437429051784713e-07 -5.095830820134018e-07 -1.9075820000173634e-06 -3.8571593906350156e-07
-6.549273058917484e-08 -3.1517465901766534e-07 -1.6985219482227118e-07 -5.465808244154375e-07 5.219305406527084e-07 -9.140514979983503e-09 -4.0895128551458027e-07 7.379527111842775e-09
6.104350485243585e-08 -4.0974549328532817e-07 -1.907877458315694e-09 -2.2999311009082725e-07 3.3235392340619213e-07 1.4676134868232095e-07 6.367316952263855e-07 2.434513474041021e-07
-1.831126808665219e-08 -1.376685457152231e-06 -2.8406864720980746e-07 1.4082831464981466e-08 7.029461548162314e-07 -3.7995313243250036e-07 -3.7831766447070715e-08 2.3971654340322684e-07
1.2423219139050638e-07 2.760968039473448e-07 1.6757829229116012e-06 4.37615255429605e-07 -3.4325738299265003e-07 3.298359651308372e-07 8.49816575662331e-07 1.5785849502871352e-07
-1.2934630898657734e-06 -1.1217618930101997e-06 -3.752674270444083e-07 3.1714579623321856e-07 4.667815751229711e-07 1.0608565798669624e-06 4.6243489037573614e-07 -1.9607885552498638e-07
-3.6767339422319777e-07 -6.036075536135048e-08 1.3849195317812304e-07 4.249370008202321e-08 7.47977354862409e-08 8.180853045444025e-08 -4.7035868031885064e-07 -2.0507371355118635e-07
4.529377848988754e-08 -2.544071309587918e-08 -2.2973589253505098e-07 -2.4858646462585127e-07 7.793189966255541e-08 3.10650381464764e-08 2.679028971264436e-06 3.582232657906177e-07
-9.627548387280682e-07 1.1019916218066106e-07 7.278916840318444e-07 1.9118084845855208e-06 -9.837415117353761e-07 -5.514598772759777e-08 -1.2087747464137403e-06 2.180916144313104e-06
9.947904631447228e-07 2.310726953379339e-06 7.042361927999868e-07 -5.256834814052386e-07 -4.409434067297658e-06 -8.393444410554151e-07 3.4116164755893974e-08 4.844695949112783e-07
00000000: f4f8 a4f7 4794 cbbe 5099 233d 223b a3be
00000010: 38f7 733d dc99 9a3e f5b9 bf86 c0db 973e
00000020: 6ef8 85b2 8dbd 9dbe 38a0 b556 0702 aabe
00000030: 46cc 40f8 74f4 ac3e 9805 8f2f f72c 703e
00000040: 8e4f ee9f 2620 a1be 1ef5 9ed7 00c6 b5be
00000050: 82e0 8c41 73af a2be 0c3a 8cdc 9d95 aebe
00000060: 667b d5b3 280e 7bbe f0f7 5207 c06f 7e3e
00000070: a40b 444f b5f2 b93e 9a05 1ea3 8828 7c3e
00000080: 73cc 1925 1747 b23e 56d1 ec6c 589c c53e
00000090: ee7a 0dd1 fa30 93be 1aaf 7282 a72c c3be
000000a0: c8c0 0b99 c92e 7ebe 40db 7302 80fb b83e
000000b0: 3967 eeac 29a5 c63e 287c 6299 48c4 abbe
000000c0: 1f2c 11ef 26c0 bc3e 0396 10b3 23c8 a3be
000000d0: cc39 6d8a 4d41 9b3e e652 d4bc 523c 733e
000000e0: 2865 85b9 c501 c1be 8ffb a8f5 8fce 99be
000000f0: d4db 33ca c4d9 70be 44bc 2230 ff1b 9d3e
00000100: a489 7d94 3d38 7bbe e4e2 1298 f801 babe
00000110: e87e 0319 0c9c 4bbe 9e6d 01e7 abc9 953e
00000120: 2cfd 0d5e b730 863e e6cf d20c 406a acbe
00000130: 2e85 0a10 14c4 a33e e25d 3ec9 bb5d 8a3e
00000140: 0fb5 0e42 0d01 7a3e 351e 334d 3212 82be
00000150: fa33 55b9 d71a c1be 7da5 7e3e 2d0c 96be
00000160: e050 4ce4 6ab5 a2be 2892 735f 777a a5be
00000170: 343c 517b cabf 933e 8446 5bcf 02ea b1be
00000180: d8c4 db64 6608 9b3e 90a7 8a77 e49a 91be
00000190: 6e40 8ff3 ec3c aabe a0e0 dc28 bccf 9cbe
000001a0: a8f6 5737 cec6 62be 2010 415e dd07 a0be
000001b0: 89b8 d9e7 4860 9cbe 93e1 9a5c 654f 8dbe
000001c0: 68fc ddbb af1a c3be 538b ffd4 8bfc 9bbe
000001d0: 4a46 266f a9e9 7c3e 6a23 333b 0db6 b13e
000001e0: 0283 d43b 2b1a 99be 4137 6780 27da 9abe
000001f0: 426c dda3 89c0 b33e 24d1 1584 39d3 9b3e
00000200: a01f d463 7194 993e d881 7ffc b727 aebe
00000210: 71ec 3cad 16b0 a13e f6b7 400f 9581 a7be
00000220: 94da 9803 efb6 6c3e 927f 4f7e fe94 8ebe
00000230: 0f1d 97dd aa28 e8be 78fb 37d7 395e c1be
00000240: 4a62 02d8 82b0 b3be a8ee faae 0398 bdbe
00000250: 1ab4 87f5 531b cebe 06fd 289a 89e1 b2be
00000260: 9e86 010d cbdd b23e 56c9 d8be 68b4 b23e
00000270: fcf7 92b6 eff1 bdbe a9db 1698 db4f c8be
00000280: 26b7 23cd 2e27 c0be c63d 62db 2d3b bbbe
00000290: 56f2 fd60 0e9b adbe bd7c ad46 1671 babe
000002a0: 4d40 36f6 10ad d6be b72d 1a16 9f84 b0be
000002b0: b338 0fce 6c1d 923e b4d2 8d14 50bc 6dbe
000002c0: bc56 eb2c 9bef b9be fc4e 7a8e a30d c3be
000002d0: 3b47 9915 37e6 c13e 6e58 2be8 ff13 b03e
000002e0: 208d b76a 2af9 9bbe 4448 8a94 f3fa b7be
000002f0: ebd9 8f40 2f60 b1be 29e2 3fbc bad6 b1be
00000300: 5e50 ffc3 91a0 9bbe 40f7 f80c e093 57be
00000310: 8c83 6ed4 f1a2 d4be 2d1b e9b8 d136 aebe
00000320: 5047 6e4f 2d02 94be 2e7a a45f d01a a2be
00000330: 238a b90e a57f b4be 50c3 ea4a 31de babe
00000340: b6df 63e4 624d b53e b7ef 824b 4e1b a93e
00000350: b48b 255d da2a 9abe 9f9e 7615 a723 a4be
00000360: 2799 e201 6a73 a5be 795c 3f14 4af4 b3be
00000370: b809 58e0 0eec 84be 32f6 a78d a892 87be
00000380: ee89 016b 4e47 bbbe ca43 6126 8e81 87be
00000390: be15 d2f6 3b72 9fbe 4247 08b4 79b1 87be
000003a0: 2857 89e8 d667 a03e aaac 4349 2978 82be
000003b0: c89b 5b86 1367 813e ce94 8ebb 4957 a4be
000003c0: 7020 4b90 1874 95be 21fa d855 8c45 9ebe
000003d0: 1651 f577 af0e 91be 40e5 2579 c887 933e
000003e0: d439 9803 81fe 8cbe 08f6 0503 c064 90be
000003f0: 8e6c 0a9e d724 d3be e51c 3785 b94c a3be
00000400: 2013 5fc2 b406 b6be 706d 5124 c491 a1be
00000410: dad6 978c 3e1f bcbe d1e4 e28d 8cc4 c2be
00000420: 0451 95b5 398a b1be 9961 9844 36ac b7be
00000430: a5be 218c 42bb bcbe e078 1c95 02d9 b03e
00000440: 38d6 b1e4 df82 b6be a688 a6dd 5d23 b8be
00000450: 6f19 01d1 eb9b a5be 862a 1f20 6dfb b5be
00000460: cae1 112d 14cc ad3e f79b 6915 2b19 903e
00000470: 5f44 9fcc a179 b0be 830e 28d4 201a a8be
00000480: 75f6 9f8d 6df9 a63e abf1 25a8 bc5c b33e
00000490: 3027 0f96 2380 c1be 80af 76f0 03cc b8be
000004a0: 242d 889d 40de bdbe c602 780c abb2 c13e
000004b0: b34b 4d6d b631 94be aced 10c0 05f8 c33e
000004c0: a013 4d15 a94f aa3e b396 dc0b a2bb a3be
000004d0: 118c e57f eead d2be e36e a8be 1fdc aabe
000004e0: 6313 641d 5406 92be a863 b9fd 069b 8abe
000004f0: 653e 4668 4feb 90be 13d6 8c08 0e43 c1be
00000500: fe6a 23af 9422 bb3e e014 2849 5d32 8d3e
00000510: 44ed aa50 87ab a3be eb9c 6b0d 0432 b2be
00000520: 36c6 08f3 98d1 aabe 1d15 9fe7 f71b b2be
00000530: 8437 2504 5b77 85be 90f2 1c8e c27d 9cbe
00000540: 8121 e493 bf4b ddbe c8ec 5a57 7adb b5be
00000550: 9f08 383c 1b4f 87be 6004 32e1 da26 a1be
00000560: 6f12 e59b dad1 c5be 2899 45e2 7b0c c1be
00000570: 1ab1 fd11 d1a2 c43e 8463 7dca eb31 9f3e
00000580: 4cc3 7b24 b89b a6be dda6 7f0d cad7 bebe
00000590: 6817 199d 1221 aebe 7cbb 5900 0b5b babe
000005a0: 124b 7c9e b599 a5be bca2 480c 4919 a1be
000005b0: a8a7 834b 8000 c0be d9fb dba3 8ce2 99be
000005c0: adae 134d a094 71be 3026 3acf a826 95be
000005d0: 54a2 a7b4 13cc 86be 8149 a5f1 1757 a2be
000005e0: beb2 8c65 5983 a13e 00d5 dc1e 0da1 43be
000005f0: f297 43c6 ba71 9bbe 282a d138 e0b1 3f3e
00000600: 1af2 b4b1 e062 703e 4c19 b8bc 5f7f 9bbe
00000610: 2019 bb86 7763 20be f88f 73ca 80de 8ebe
00000620: 2cdd 6603 cc4d 963e cd79 9e79 aeb2 833e
00000630: ba68 2bce 7b5d a53e e7ec 5c59 7656 903e
00000640: b8e3 86f0 5ca9 53be 0b65 fdaa d118 b7be
00000650: d230 6e1f 4310 93be 40d9 4d54 1e3e 4e3e
00000660: 788a 1cf1 4296 a73e 6d0a 698c 8b7f 99be
00000670: e62e 8cf2 8e4f 64be 74e6 e281 4c16 903e
00000680: 3246 6de9 95ac 803e 5307 d895 4e87 923e
00000690: 40db 32cf 6e1d bc3e d533 523f 2c5e 9d3e
000006a0: ded2 88ef 1d09 97be 2a06 6aea 8922 963e
000006b0: 808e af69 de83 ac3e 0abd b101 fa2f 853e
000006c0: 8097 18b5 61b3 b5be 1cbf b53e eed1 b2be
000006d0: ae7e 2699 0b2f 99be 163c 6ff6 8548 953e
000006e0: e861 f213 3f53 9f3e ac84 1c25 58cc b13e
000006f0: 8cac fe27 9208 9f3e 5aba 56da 3751 8abe
00000700: cced 4db0 94ac 98be fc69 5aa3 f533 70be
00000710: 0408 5d1a 8c96 823e b0c1 b527 4ad0 663e
00000720: 58fb a9ad 0f14 743e 5435 45e3 d6f5 753e
00000730: 6a86 5a5a b390 9fbe a85f f775 4786 8bbe
00000740: e0c7 db27 2151 683e ac16 1308 1751 5bbe
00000750: 9cda 0148 aad5 8ebe 5355 5dd5 aeae 90be
00000760: bed2 477a 70eb 743e 6402 71dc 8bad 603e
00000770: 379c a5c0 2b79 c63e d61f 9595 3a0a 983e
00000780: 301e cf23 0027 b0be e0bd bb29 d494 7d3e
00000790: c819 9fbd 8a6c a83e cc43 56d4 9309 c03e
000007a0: a0e2 1a3b 2381 b0be 90dd 8ff3 349b 6dbe
000007b0: 6e61 98e3 a547 b4be 9ed6 7654 7b4b c23e
000007c0: b215 72ae 97b0 b03e a08d b193 3f62 c33e
000007d0: de31 efc3 57a1 a73e 2e16 5f33 96a3 a1be
000007e0: 0596 d901 987e d2be 1220 fff1 e929 acbe
000007f0: 8c8f c3d5 e350 623e 2eac e3e7 8f41 a03e
